models/translations/trained_models/FE_bert_2.model (torch, 798123 bytes, 8 tensors)

lstm.weight_ih_l0 f4 [512, 1]
-1.7874837 -1.1556305 -1.7542615 -1.3956213 1.2513257 -1.9296706 1.641753 -1.4756191
1.2937509 -1.1702818 -1.7456509 0.9989202 -1.0429989 -1.7138536 -1.7150838 0.84172827
-0.7995907 -0.84495175 -0.5058468 -2.0250387 -1.006074 1.7086219 -2.1507285 -1.5864825
-1.0364163 -0.99981785 1.6240759 -1.6905361 -1.6883242 -2.0895035 -0.5977658 0.19337748
-0.85348266 -1.7279681 -2.083453 -0.5330051 -0.8338377 -0.9642262 -0.35104027 1.9404714
-2.1937628 2.191722 -0.7881927 -1.8275404 1.8143674 -1.941933 -0.6897641 0.5466099
-0.6820081 -1.7003351 -1.6562548 -1.9198887 -1.9341432 -1.6117854 -0.87997556 -1.8259737
0.49414745 -2.1019301 -1.2595583 1.8431525 1.7984678 -1.1688141 -1.7846297 -1.6469952
-0.71957237 -1.5428162 -0.72354245 1.7894354 -1.4111086 -1.9160252 -1.7495501 -0.50317633
0.047562838 -0.74707335 -2.0435913 -1.7294494 -1.2328501 1.7183642 -1.8508872 -0.23383789
-1.6969852 -0.39177644 -0.80451924 1.8280377 -1.6075293 -1.2149664 1.090454 -1.7591547
-1.1781292 -1.5667187 -0.9490353 -1.5234874 -0.054820813 0.824608 1.5281614 -0.61949635
-1.8699259 -0.6008609 -1.9753672 -0.87192154 -1.6401387 -0.19384748 -2.5391397 0.7664354
-0.29978666 -1.9364549 0.7256799 -2.2118077 -2.1955636 -1.4478903 -1.6726474 -1.6087657
-1.6323272 -1.7086393 -2.2733521 -1.6204011 1.7749704 -1.0880257 -1.5926579 -1.8771272
-1.6588227 -1.0825757 -1.2846385 -1.556087 2.0252848 -1.8056804 -1.473327 0.06940885
0.047657467 -0.8996819 -0.86734194 -0.053939804 1.1309052 0.6902491 0.6510226 0.5103481
0.682179 0.5739045 -0.8277329 0.20571299 1.0704756 -0.46428272 -0.060498312 1.2757943
0.990682 0.29634026 0.6378348 -0.52283275 -0.29906467 0.6843176 -0.9170022 0.54482734
0.2846247 -1.4333339 0.80346406 -0.34298792 -0.45495903 0.21152192 -0.35687053 -0.21266353
-0.22404346 -0.43254632 0.4195044 0.65998757 0.52525353 -0.32330614 0.29138452 0.6858653
-0.5359426 0.6624124 -0.44954297 -0.45356956 0.38533244 -0.65148586 -0.5018193 0.79668087
-0.07938795 -0.2980943 0.39796814 -0.45177647 -0.47023964 -0.1480628 0.44345674 -0.6283218
-0.25529367 0.7148343 -1.0426707 0.047974676 0.7435199 0.07309857 0.3656255 -0.50018424
-0.26317725 -0.62943095 -0.5177734 0.83364666 -0.39389214 -0.32096857 -0.4196281 -0.2952613
0.9816096 -0.7517415 -0.44278917 -0.3621722 -0.3530332 1.049101 -0.22490962 0.83770865
-0.5262803 -0.32210222 -0.3140814 0.6081642 0.40732574 -0.34981996 0.63458467 -0.5160588
-1.3464489 -0.14269064 -0.42282584 -0.36176407 -0.14439666 -0.5723299 0.8531281 0.23484522
-0.08645159 -0.56014484 -0.3847153 -0.6091883 -0.5398456 0.7989829 -0.5268398 -0.005950069
-0.13488224 -0.46841428 1.4228097 -0.75025463 -0.38189444 -0.46556258 -0.6070614 -0.43244755
-0.4973683 -0.34348062 -0.74503046 0.99509114 -0.2753243 0.6432156 0.22062743 -0.3961333
-0.63267905 0.37587488 1.0051463 -0.18788517 0.09795117 -0.2567409 -0.24470106 0.07136901
00000000: 44cc e4bf b3eb 93bf a48b e0bf b8a3 b2bf
00000010: 712b a03f 72ff f6bf f624 d23f 16e1 bcbf
00000020: a199 a53f cbcb 95bf 7d71 dfbf 3cb9 7f3f
00000030: fd80 85bf 8e5f dbbf de87 dbbf 817b 573f
00000040: fab1 4cbf c24e 58bf 2d7f 01bf 3c9a 01c0
00000050: 08c7 80bf 1fb4 da3f 89a5 09c0 dc11 cbbf
00000060: 4aa9 84bf 10f4 7fbf b8e1 cf3f 7d63 d8bf
00000070: 021b d8bf 6dba 05c0 2e07 19bf bf04 463e
00000080: d77d 5abf 0f2e ddbf 4b57 05c0 0673 08bf
00000090: 6376 55bf 87d7 76bf 8dbb b3be 5e61 f83f
000000a0: 9c66 0cc0 2c45 0c40 ffc6 49bf d8ec e9bf
000000b0: 313d e83f 4391 f8bf 6194 30bf a0ee 0b3f
000000c0: 1598 2ebf 95a4 d9bf 2800 d4bf eabe f5bf
000000d0: 0192 f7bf fc4e cebf 1446 61bf 82b9 e9bf
000000e0: e500 fd3e 0686 06c0 3539 a1bf 6cec eb3f
000000f0: 3134 e63f b39b 95bf bf6e e4bf bdd0 d2bf
00000100: e535 38bf 007b c5bf 143a 39bf 380c e53f
00000110: 359f b4bf 5040 f5bf 42f1 dfbf 2ad0 00bf
00000120: 40d1 423d 3340 3fbf 33ca 02c0 995e ddbf
00000130: 08ce 9dbf 5cf3 db3f dfe9 ecbf 3373 6fbe
00000140: d036 d9bf ec96 c8be f9f4 4dbf 24fd e93f
00000150: 85c3 cdbf 0584 9bbf ff93 8b3f fb2b e1bf
00000160: f0cc 96bf 3d8a c8bf faf3 72bf a301 c3bf
00000170: ca8b 60bd 8319 533f cb9a c33f 5097 1ebf
00000180: bb59 efbf 05d2 19bf d5d8 fcbf 4036 5fbf
00000190: 11f0 d1bf f47f 46be 4481 22c0 1c35 443f
000001a0: a37d 99be c1dd f7bf 28c6 393f 428e 0dc0
000001b0: 1d84 0cc0 7854 b9bf 4f19 d6bf 09ec cdbf
000001c0: 19f0 d0bf b1b4 dabf 9a7e 11c0 4e69 cfbf
000001d0: 3b32 e33f 6d44 8bbf 37dc cbbf b445 f0bf
000001e0: 4d54 d4bf d791 8abf 096f a4bf dc2d c7bf
000001f0: 449e 0140 8920 e7bf fb95 bcbf 3a26 8e3d
00000200: 7a34 433d 8e51 66bf 1f0a 5ebf fcef 5cbd
00000210: 80c1 903f 2ab4 303f 6ba9 263f 2ca6 023f
00000220: 48a3 2e3f 68eb 123f 4ee6 53bf 6da6 523e
00000230: 5805 893f 77b6 edbe 14cd 77bd 3a4d a33f
00000240: 569d 7d3f e9b9 973e 2449 233f 5ed8 05bf
00000250: 011f 99be 702f 2f3f a8c0 6abf ce79 0b3f
00000260: 54ba 913e 7c77 b7bf d2af 4d3f 1d9c afbe
00000270: 64f0 e8be 3499 583e bcb7 b6be 78c4 59be
00000280: a66b 65be b676 ddbe 48c9 d63e f2f4 283f
00000290: 0477 063f 6288 a5be 5a30 953e de94 2f3f
000002a0: 8933 09bf dc93 293f 7f2a e6be 453a e8be
000002b0: 4b4a c53e c7c7 26bf 3b77 00bf 47f3 4b3f
000002c0: 2696 a2bd d19f 98be 7bc2 cb3e 3f4f e7be
000002d0: 40c3 f0be c69d 17be c30c e33e b3d9 20bf
000002e0: dab5 82be 61ff 363f 3c76 85bf 1881 443d
000002f0: 5257 3e3f b4b4 953d 4433 bb3e 130c 00bf
00000300: 2bbf 86be 6322 21bf cc8c 04bf de69 553f
00000310: 3bac c9be fe55 a4be 7fd9 d6be 7d2c 97be
00000320: c44a 7b3f 2272 40bf 43b5 e2be a26e b9be
00000330: c5c0 b4be f148 863f b54e 66be 1374 563f
00000340: 4eba 06bf 95ea a4be 47cf a0be a6b0 1b3f
00000350: 008d d03e 9a1b b3be 2474 223f 6e1c 04bf
00000360: 7058 acbf 7f1d 12be a17c d8be 2439 b9be
00000370: b8dc 13be 3684 12bf 9a66 5a3f 447b 703e
00000380: 880d b1bd a765 0fbf 67f9 c4be c4f3 1bbf
00000390: 5233 0abf 258a 4c3f f9de 06bf ccf8 c2bb
000003a0: 921e 0abe ffd3 efbe a11e b63f b010 40bf
000003b0: ab87 c3be 385e eebe 6068 1bbf c469 ddbe
000003c0: 0fa7 febe b1dc afbe 51ba 3ebf 4bbe 7e3f
000003d0: 4ff7 8cbe c7a9 243f 28ec 613e fcd1 cabe
000003e0: 41f7 21bf ac72 c03e a2a8 803f f864 40be
000003f0: 9f9a c83d 8b73 83be ea92 7abe ea29 923d

lstm.weight_hh_l0 f4 [512, 128]
0.17857412 -0.44546714 0.30880216 0.43250677 -0.8168201 0.8614282 -0.62029 -0.60503155
0.4741429 -0.7988465 0.6742408 -0.9398816 0.30047357 -0.42378184 0.49035287 -0.85477066
-0.2061835 -0.8350279 -0.28254846 0.64586234 -0.7637704 1.0082923 0.39630458 -0.42479733
-0.348771 -0.3851866 -0.8073368 -0.44375655 -0.44453955 -0.5832138 -0.17174903 0.32825392
0.71884686 0.361385 -0.65570694 0.7566063 -0.5611535 -0.803261 0.20097038 0.7781044
0.21729551 -0.5059768 -0.7753784 -0.73165673 -0.8920075 -0.78411424 -0.77097887 -0.5864579
-0.36980715 -0.41117808 0.6889552 -0.3539474 -0.56600755 0.40003806 -0.46951765 0.74714875
0.26378623 -0.041763272 0.83330065 -0.7764766 0.80977756 0.70514226 0.7097073 -0.39837426
0.7939296 0.6025364 0.76662004 -0.8407146 0.47616133 -0.67992467 -0.7084463 -0.76639265
0.8137136 0.72210264 -0.37465736 0.32729235 0.20783325 0.76146936 0.072715476 0.77029806
0.7174223 -0.70394963 0.6774049 0.81609815 0.5990772 -0.9443402 -0.81458515 0.02987137
-0.3534054 -0.36389557 0.50189763 -0.74161315 0.36355135 0.42401206 0.8599153 -0.6800379
-0.6571373 0.72573984 0.48114625 -0.81402725 -0.23749088 -1.0074606 0.48984495 -0.86522335
0.8456638 0.48359534 -0.019513164 0.4344933 -0.6023297 0.32931438 0.7172708 0.725941
0.71121377 -0.5291866 -0.9081907 0.58359385 -0.8220399 -0.5942011 0.500558 0.40111494
0.6711863 0.5075412 -0.26045287 -0.304381 -0.80850524 0.14965853 -0.44228905 -0.72621596
0.37072584 -0.6652939 0.7389306 -0.2109417 -0.90252537 0.78206456 -0.66182595 -0.6343209
-0.38920942 -0.6372636 -0.095924884 -0.8095055 0.7471247 0.12784484 -0.12087242 -0.7450678
0.43976125 -0.62383115 0.4725708 0.78764975 -0.8225637 -0.26419255 0.6405505 0.15607949
0.15324213 -0.65425074 -0.7925212 0.062101524 0.22797444 0.23542258 -0.67852896 -0.7104508
0.8194292 -0.42017564 0.15369946 0.8502871 -0.56811035 -0.9619283 -0.20490415 0.49816605
0.44191894 -0.6216417 -0.8656725 0.09248707 -0.7011393 -0.86306274 -0.92175275 -0.66366273
-0.58658713 0.4245068 -0.028136056 -0.49546224 0.20740971 -0.044168036 -0.7116149 -0.0678278
-0.38041896 0.49506736 0.83077925 -0.84976846 0.72064054 0.93824893 -0.12645926 0.22854829
0.8484688 0.69454014 0.7511421 -0.5854373 -0.19286811 -0.07964835 0.058057453 -0.84342587
0.65932417 0.85881525 0.15261827 -0.27289554 -0.27990744 0.6316176 0.6850713 0.72760653
0.096721 -0.92531526 0.99808896 -0.10733907 -0.115409575 -0.76680803 -0.7646796 0.39743927
0.22554147 0.0045211124 -0.31748232 -0.95807153 0.7501901 0.60656726 0.6401696 -0.82447666
0.14241375 0.906953 -0.13732496 -0.8674223 -0.8033704 -0.64526284 0.024575958 -0.882303
0.9146015 0.07803065 -0.6548333 0.2822852 0.21455118 0.79873717 -0.051052503 -0.14955854
-0.12460138 0.2940884 0.063894615 -0.3070999 -0.8975392 -0.5725706 0.60376483 -0.03163117
0.073875785 0.6902579 -0.53178066 0.29359287 -0.693682 -0.39942566 0.14007996 -0.6821178
00000000: 22dc 363e 4514 e4be 511b 9e3e 8771 dd3e
00000010: 1f1b 51bf 8f86 5c3f 53cb 1ebf 59e3 1abf
00000020: dcc2 f23e 3481 4cbf 0c9b 2c3f 159c 70bf
00000030: acd7 993e eff9 d8be 880f fb3e 40d2 5abf
00000040: c421 53be 63c4 55bf 31aa 90be 3c57 253f
00000050: 7586 43bf b90f 813f 6fe8 ca3e 097f d9be
00000060: 1d92 b2be 2e37 c5be a0ad 4ebf 0f34 e3be
00000070: b09a e3be 804d 15bf fade 2fbe e610 a83e
00000080: 5906 383f 7407 b93e 69dc 27bf f3b0 413f
00000090: c1a7 0fbf 83a2 4dbf 2ecb 4d3e da31 473f
000000a0: b782 5e3e b287 01bf 337f 46bf db4d 3bbf
000000b0: 9b5a 64bf b6bb 48bf df5e 45bf 1b22 16bf
000000c0: 5d57 bdbe ef85 d2be 5e5f 303f 9838 b5be
000000d0: dfe5 10bf cad1 cc3e 9e64 f0be 2445 3f3f
000000e0: fd0e 873e f70f 2bbd 3153 553f 2cc7 46bf
000000f0: 954d 4f3f 3484 343f 61af 353f b6f7 cbbe
00000100: f83e 4b3f d33f 1a3f 3641 443f 1239 57bf
00000110: 6bcb f33e 8b0f 2ebf bd5c 35bf 4f32 44bf
00000120: 894f 503f b8db 383f 17d3 bfbe dd92 a73e
00000130: 3dd2 543e a8ef 423f daeb 943d 4132 453f
00000140: fda8 373f 0b36 34bf 686a 2d3f cfeb 503f
00000150: 205d 193f 48c0 71bf a788 50bf ceb4 f43c
00000160: 8df1 b4be 8550 babe 5d7c 003f 5cda 3dbf
00000170: 6723 ba3e 1c18 d93e 6923 5c3f f716 2ebf
00000180: 263a 28bf 16ca 393f cd58 f63e 1764 50bf
00000190: cf30 73be 78f4 80bf f5cc fa3e 477f 5dbf
000001a0: 6c7d 583f cf99 f73e 12da 9fbc e875 de3e
000001b0: 4732 1abf e59b a83e 0f9f 373f 45d7 393f
000001c0: 1b12 363f c678 07bf 307f 68bf 6866 153f
000001d0: 3571 52bf 901d 18bf 9224 003f f05e cd3e
000001e0: ded2 2b3f 38ee 013f 145a 85be d4d7 9bbe
000001f0: 33fa 4ebf 1640 193e b673 e2be 4ae9 39bf
00000200: c7cf bd3e b350 2abf 8e2a 3d3f 1a01 58be
00000210: e70b 67bf 6235 483f 6d6d 29bf db62 22bf
00000220: 7546 c7be b523 23bf 4474 c4bd c13b 4fbf
00000230: 9043 3f3f c2e9 023e f68b f7bd c3bc 3ebf
00000240: 6328 e13e 66b3 1fbf cdf4 f13e 6aa3 493f
00000250: 8993 52bf 3f44 87be 1efb 233f 4dd3 1f3e
00000260: 81eb 1c3e fa7c 27bf abe2 4abf 2b5e 7e3d
00000270: 2272 693e 9e12 713e 13b4 2dbf 1be0 35bf
00000280: 1dc6 513f 4321 d7be 6463 1d3e 6aac 593f
00000290: ae6f 11bf ef40 76bf 65d2 51be 9f0f ff3e
000002a0: 3343 e23e e923 1fbf b79c 5dbf dc69 bd3d
000002b0: dd7d 33bf aef1 5cbf fdf7 6bbf cde5 29bf
000002c0: 932a 16bf f558 d93e 967d e6bc 3aad fdbe
000002d0: 3663 543e 8be9 34bd 652c 36bf 4de9 8abd
000002e0: 46c6 c2be 7879 fd3e f3ad 543f 6d8a 59bf
000002f0: e67b 383f 1531 703f 897e 01be 9008 6a3e
00000300: 4035 593f 62cd 313f d94a 403f 38df 15bf
00000310: 387f 45be ad1e a3bd a7cd 6d3d c2ea 57bf
00000320: 78c9 283f 51db 5b3f f747 1c3e f7b8 8bbe
00000330: 0750 8fbe b1b1 213f d560 2f3f 6c44 3a3f
00000340: a915 c63d 76e1 6cbf c282 7f3f 96d4 dbbd
00000350: db5b ecbd 884d 44bf 0bc2 43bf 297d cb3e
00000360: 58f4 663e d725 943b 0b8d a2be 2d44 75bf
00000370: 750c 403f fe47 1b3f 28e2 233f e710 53bf
00000380: e9d4 113e 122e 683f ea9e 0cbe 630f 5ebf
00000390: afa9 4dbf f22f 25bf 8553 c93c 9cde 61bf
000003a0: 5323 6a3f 89ce 9f3d 28a3 27bf b087 903e
000003b0: 4eb3 5b3e 0a7a 4c3f 6e1c 51bd e025 19be
000003c0: 022f ffbd c192 963e 2edb 823d 333c 9dbe
000003d0: 21c5 65bf fd93 12bf 5590 1a3f b08f 01bd
000003e0: 304c 973d beb4 303f c722 08bf ce51 963e
000003f0: 2595 31bf 8581 ccbe 1f71 0f3e 469f 2ebf

lstm.bias_ih_l0 f4 [512]
-2.0362089 -1.5909297 -1.6520114 -1.408233 1.6105781 -1.3227013 1.5543768 -1.4215087
1.4307898 -1.283841 -1.7943947 1.0694646 -1.4335597 -1.8139429 -1.6966258 1.010203
-0.9812744 -0.822865 -0.7423385 -1.7495513 -1.6694361 1.9133333 -2.5342383 -1.618744
-1.276127 -0.9696261 1.7475854 -1.7411547 -1.804327 -2.0098739 -0.56749195 0.05768557
-0.7976514 -1.8282057 -2.0885878 -1.6684496 -1.0409789 -0.82079256 -0.33384666 1.9540169
-2.318955 2.1364987 -1.592505 -1.7769883 1.7912635 -1.7851996 -1.7878829 0.5352508
-0.7623412 -1.9238371 -1.6737922 -2.1595228 -1.983732 -1.5814861 -0.98953795 -1.7163845
0.4166976 -2.1219797 -1.0963084 1.8936781 1.8454015 -0.93135214 -1.8782014 -1.7740726
-0.7409644 -1.6116449 -1.9432697 1.7913959 -1.699564 -1.9542177 -1.7325046 -1.1489099
0.102822006 -1.7033256 -1.8386934 -1.9367492 -1.8989128 1.8707345 -1.9685714 -0.13630252
-1.6828607 -1.5237399 -1.0779341 1.9643306 -1.5887654 -1.0850148 1.2787682 -1.9894114
-1.3336003 -1.6508689 -0.90065134 -1.6226991 0.15247136 0.8022229 1.6981715 -0.86403084
-1.9086323 -1.6512777 -1.7688749 -1.5682963 -1.8091757 -0.3351715 -2.3950632 0.5426649
-1.7264423 -2.0881863 0.5724288 -2.091092 -2.3442004 -1.6611315 -1.6269585 -1.7356316
-1.6094958 -1.8273511 -0.45045218 -1.6613082 1.7791848 -1.141964 -1.5595019 -1.8260199
-1.6514999 -1.0276088 -1.6631906 -1.8939453 2.2105148 -2.136979 -1.5860978 -0.85537994
-1.0824035 -0.064061776 -0.5043608 -0.7967471 1.2874057 1.0173149 0.8886462 0.24603155
1.044712 0.45747873 -0.65445226 0.90544224 0.2602314 -0.42596543 -0.0016623633 1.4913034
0.44000047 -0.16667572 0.7977945 -0.3041238 -0.48302346 0.9142702 0.09984463 -0.7286096
-0.6871744 -0.52668166 0.8881875 -0.4593194 -0.7884094 -0.46391943 -0.86134464 -0.98891556
-0.18114796 -0.84136903 -0.7144639 0.58387804 0.5491986 0.8175709 0.50941736 0.89825004
-0.8203856 0.88566357 -0.37226635 -0.7366009 0.678986 -0.7906675 -0.7745531 0.95237976
-0.48099285 -0.72249085 -0.12328609 -0.6041487 -0.6038611 -0.48593754 0.60104334 -0.70103914
-0.9016943 0.5646229 -0.75321215 0.8289466 0.8798006 0.95378935 -0.4354063 -0.8724738
-0.11306294 0.60039204 -0.6376685 0.9589056 -0.48185098 -0.59927106 -0.671036 -0.55106825
1.1206777 -0.486215 -0.6129664 -0.7715947 -0.79306555 0.86733186 -1.1506783 0.8786798
-0.52505803 -0.43674672 -0.091615595 0.77975017 -0.43270946 0.80858415 0.77069074 -0.95044404
-1.5436383 -0.8489517 -0.598905 -0.67589486 0.62914413 -0.6978153 0.7554115 0.103926316
-0.61513567 -0.6720614 -0.71528184 -0.37986732 -0.9874867 -0.6576648 -0.52026623 0.64811236
-0.49840015 -0.7078894 0.49647278 -0.5919178 -0.6229508 -0.94028795 -0.54379576 -0.63313085
-0.5420856 -0.57877755 0.73719317 0.8006351 0.85490245 0.8724923 0.6122369 -0.60995257
-0.6102576 0.3835943 0.27755874 -0.8619429 0.76841605 -0.9066192 -0.37774885 -0.9223029
00000000: 3f51 02c0 96a3 cbbf 1c75 d3bf fb40 b4bf
00000010: 6c27 ce3f 474e a9bf d2f5 c63f fff3 b5bf
00000020: 1f24 b73f e754 a4bf baae e5bf 37e4 883f
00000030: e27e b7bf 482f e8bf 092b d9bf 554e 813f
00000040: cd34 7bbf 48a7 52bf e509 3ebf 4cf1 dfbf
00000050: 15b0 d5bf 1be8 f43f f630 22c0 0133 cfbf
00000060: 2158 a3bf 6b39 78bf e1b0 df3f 28de debf
00000070: 30f4 e6bf c6a1 00c0 2747 11bf b447 6c3d
00000080: e232 4cbf a502 eabf 6cab 05c0 c28f d5bf
00000090: cc3e 85bf 761f 52bf f3ed aabe 3a1d fa3f
000000a0: c269 14c0 65bc 0840 34d7 cbbf 5a74 e3bf
000000b0: 1f48 e53f 6c81 e4bf 59d9 e4bf 3206 093f
000000c0: cb28 43bf 4b40 f6bf d33e d6bf 9f35 0ac0
000000d0: eeea fdbf 236e cabf 5c52 7dbf 7db2 dbbf
000000e0: 6359 d53e 84ce 07c0 d553 8cbf 0b64 f23f
000000f0: 1e36 ec3f 186d 6ebf e768 f0bf d014 e3bf
00000100: d8af 3dbf 614a cebf 10bd f8bf 764c e53f
00000110: 508b d9bf ce23 fabf b6c2 ddbf 7b0f 93bf
00000120: 5894 d23d 9306 dabf 4e5a ebbf 66e7 f7bf
00000130: 930f f3bf 3a74 ef3f 26fa fbbf e392 0bbe
00000140: fb67 d7bf e909 c3bf bff9 89bf 2f6f fb3f
00000150: aa5c cbbf c4e1 8abf adae a33f 08a5 febf
00000160: 6ab3 aabf ac4f d3bf 1691 66bf 9bb4 cfbf
00000170: 7421 1c3e 7b5e 4d3f af5d d93f 2031 5dbf
00000180: 104e f4bf 115d d3bf 7e6a e2bf efbd c8bf
00000190: 1293 e7bf 999b abbe b748 19c0 16ec 0a3f
000001a0: 10fc dcbf d8a4 05c0 b28a 123f 74d4 05c0
000001b0: 6107 16c0 f59f d4bf 2d40 d0bf 2d29 debf
000001c0: f503 cebf a4e6 e9bf aba1 e6be bfa5 d4bf
000001d0: 54bc e33f e02b 92bf c29d c7bf 05bb e9bf
000001e0: 5964 d3bf af88 83bf 6ee3 d4bf cd6c f2bf
000001f0: 1379 0d40 44c4 08c0 4105 cbbf 2efa 5abf
00000200: 338c 8abf d232 83bd ca1d 01bf 9ef7 4bbf
00000210: b6c9 a43f 6037 823f 517e 633f b2ef 7b3e
00000220: 1fb9 853f a73a ea3e 2f8a 27bf 10cb 673f
00000230: 0d3d 853e 2418 dabe a8e3 d9ba 08e3 be3f
00000240: be47 e13e 0aad 2abe 433c 4c3f 1db6 9bbe
00000250: da4e f7be 9d0d 6a3f 577b cc3d 2986 3abf
00000260: a9ea 2fbf 9cd4 06bf 4260 633f ea2b ebbe
00000270: 33d5 49bf d986 edbe 1581 5cbf 9229 7dbf
00000280: da7e 39be f663 57bf 1be7 36bf 0879 153f
00000290: 4898 0c3f 544c 513f 2d69 023f b7f3 653f
000002a0: ca04 52bf d9ba 623f b299 bebe e091 3cbf
000002b0: 07d2 2d3f 2f69 4abf 1d49 46bf 29cf 733f
000002c0: b244 f6be 29f5 38bf 6b7d fcbd 7da9 1abf
000002d0: a496 1abf cecc f8be fadd 193f 4d77 33bf
000002e0: 70d5 66bf 208b 103f 83d2 40bf d835 543f
000002f0: 9d3a 613f 8a2b 743f 93ed debe 715a 5fbf
00000300: 8b8d e7bd 4bb3 193f 3e3e 23bf d67a 753f
00000310: 2cb5 f6be d469 19bf 04c9 2bbf cf12 0dbf
00000320: 5e72 8f3f 2cf1 f8be 5eeb 1cbf 3b87 45bf
00000330: 5806 4bbf 7609 5e3f 6d49 93bf 29f1 603f
00000340: 346a 06bf 449d dfbe f5a0 bbbd b59d 473f
00000350: 188c ddbe 5fff 4e3f fd4b 453f 4d50 73bf
00000360: f195 c5bf e654 59bf d751 19bf 7207 2dbf
00000370: 970f 213f 06a4 32bf a662 413f 52d7 d43d
00000380: 8879 1dbf 370c 2cbf b61c 37bf f87d c2be
00000390: eecb 7cbf b85c 28bf 2b30 05bf b1ea 253f
000003a0: 4e2e ffbe 3d38 35bf ae31 fe3e ed87 17bf
000003b0: b479 1fbf b6b6 70bf 3336 0bbf dd14 22bf
000003c0: 1fc6 0abf c42a 14bf b1b8 3c3f 6cf6 4c3f
000003d0: e3da 5a3f a85b 5f3f 8fbb 1c3f da25 1cbf
000003e0: d839 1cbf 7966 c43e 2e1c 8e3e 4aa8 5cbf
000003f0: eab6 443f 3218 68bf 4c68 c1be 0b1c 6cbf

lstm.bias_hh_l0 f4 [512]
-1.9333068 -1.5297505 -1.5826586 -1.4014821 1.6027843 -1.425162 1.4137347 -1.3907164
1.4121096 -1.249302 -1.803332 1.1373683 -1.4366102 -1.7005658 -1.7337081 1.0295974
-0.95522845 -0.88049495 -0.8507282 -1.8819933 -1.6344581 1.9871562 -2.5026577 -1.7565801
-1.3034772 -0.9854236 1.8721957 -1.7597599 -1.8846639 -2.0869884 -0.6197091 0.15150067
-0.745975 -1.8323473 -2.079891 -1.5820882 -1.111425 -0.77219224 -0.37272596 1.9078938
-2.3650842 2.166106 -1.720303 -1.8282672 1.8965559 -1.616749 -1.8417213 0.5033945
-0.7477338 -2.011155 -1.6641846 -2.1683884 -1.991055 -1.661339 -0.82681435 -1.7570078
0.29922614 -2.0508049 -1.079109 2.0517793 1.8558074 -0.98952335 -1.8045902 -1.8101145
-0.8596191 -1.5181891 -1.9497709 1.7433717 -1.6415075 -2.0168848 -1.7382618 -1.085814
0.15992473 -1.7103035 -1.8124776 -1.942584 -1.9927132 1.8054453 -2.0274816 -0.17790401
-1.7674348 -1.518469 -1.0296007 2.0203712 -1.6979837 -1.0477953 1.130727 -2.000438
-1.2391 -1.609977 -0.9743271 -1.6572441 0.24906684 0.6767049 1.6276406 -0.85778445
-1.8585086 -1.7486808 -1.7045176 -1.5374309 -1.8010156 -0.38818243 -2.3905363 0.5996431
-1.7030216 -2.0244453 0.67781126 -1.9719929 -2.2492895 -1.6610655 -1.6486584 -1.701408
-1.7051083 -1.7431905 -0.45915774 -1.6108165 1.7649678 -1.1772447 -1.5346293 -1.8278161
-1.6893682 -1.1127536 -1.7189275 -1.8536518 2.3701577 -2.0323565 -1.5257138 -0.76171035
-1.0723765 -0.07149152 -0.6491663 -0.7965279 1.2790138 1.0299146 0.88363516 0.20292166
1.1133614 0.5537834 -0.6362408 0.9443662 0.4082733 -0.4768599 -0.05336156 1.3587223
0.47940308 -0.107119344 0.6799586 -0.20041801 -0.5559561 0.89799947 0.13722907 -0.71996725
-0.7373253 -0.5430207 0.8864617 -0.36090124 -0.86402166 -0.44986522 -0.8391957 -1.0357199
-0.2467216 -0.8124463 -0.64333093 0.5780663 0.45527184 0.8963321 0.4212817 0.86841506
-0.9063539 0.9417685 -0.36633712 -0.6434111 0.76177436 -0.81163585 -0.8110735 0.88226753
-0.54827994 -0.65414107 -0.22499982 -0.60939795 -0.6405609 -0.48800644 0.5906737 -0.65832114
-0.95381063 0.48120672 -0.90136397 0.82774276 0.9066132 0.9264479 -0.40307885 -0.8121601
-0.044656686 0.50118387 -0.66078544 0.86620605 -0.5995318 -0.533736 -0.6115796 -0.5560675
0.97958845 -0.52610177 -0.5615272 -0.7352006 -0.7790298 0.76189137 -1.1818575 0.8343979
-0.5249411 -0.51087797 -0.18136613 0.80932873 -0.46161735 0.97008485 0.8193026 -0.9147177
-1.5703646 -0.8520931 -0.612957 -0.5746009 0.7457521 -0.75066483 0.67922646 0.12364522
-0.7536759 -0.63968575 -0.648863 -0.35878158 -0.88648456 -0.70593476 -0.4716635 0.6429264
-0.45547852 -0.6877004 0.39922586 -0.59657264 -0.7135025 -1.0287017 -0.49137938 -0.67600083
-0.53529483 -0.5897841 0.86048603 0.90517575 0.86246353 0.84161955 0.5627076 -0.6127249
-0.5200866 0.3371618 0.38690642 -0.8026022 0.70929605 -0.94178396 -0.41313493 -0.764785
00000000: 9976 f7bf ddce c3bf 8f94 cabf c463 b3bf
00000010: 0928 cd3f b56b b6bf 42f5 b43f ff02 b2bf
00000020: 02c0 b43f 21e9 9fbf 95d3 e6bf 4995 913f
00000030: d8e2 b7bf 24ac d9bf 26ea ddbf d9c9 833f
00000040: da89 74bf 1e68 61bf 53c9 59bf 28e5 f0bf
00000050: ec35 d1bf 225b fe3f 8b2b 20c0 9ed7 e0bf
00000060: 57d8 a6bf b944 7cbf 1ca4 ef3f d03f e1bf
00000070: ab3c f1bf 3891 05c0 41a5 1ebf fe22 1b3e
00000080: 38f8 3ebf 5b8a eabf ef1c 05c0 de81 cabf
00000090: 2d43 8ebf 64ae 45bf f0d5 bebe dd35 f43f
000000a0: 8a5d 17c0 7ba1 0a40 e432 dcbf a904 eabf
000000b0: 58c2 f23f a2f1 cebf 86bd ebbf 76de 003f
000000c0: 7b6b 3fbf c3b6 00c0 0004 d5bf e0c6 0ac0
000000d0: e4da febf c2a6 d4bf 1baa 53bf a2e5 e0bf
000000e0: 2b34 993e 6340 03c0 3e20 8abf 5a50 0340
000000f0: 198b ed3f 6751 7dbf d0fc e6bf d5b1 e7bf
00000100: ff0f 5cbf 0554 c2bf 1892 f9bf ce26 df3f
00000110: eb1c d2bf a414 01c0 5d7f debf f4fb 8abf
00000120: 4fc3 233e 3aeb dabf 44ff e7bf 98a6 f8bf
00000130: 3a11 ffbf d518 e73f 42c2 01c0 782c 36be
00000140: 4e3b e2bf 315d c2bf f5c9 83bf c34d 0140
00000150: 8857 d9bf 281e 86bf aabb 903f 2d07 00c0
00000160: d49a 9ebf ba13 cebf 806d 79bf 9320 d4bf
00000170: 610b 7f3e 883c 2d3f 8756 d03f c397 5bbf
00000180: 9ce3 edbf c6d4 dfbf a22d dabf 89ca c4bf
00000190: ae87 e6bf d9bf c6be 8cfe 18c0 3682 193f
000001a0: 9dfc d9bf 8390 01c0 0a85 2d3f 436a fcbf
000001b0: 5cf4 0fc0 cb9d d4bf 3d07 d3bf bdc7 d9bf
000001c0: fd40 dabf de20 dfbf b916 ebbe 3c2f cebf
000001d0: 77ea e13f f4af 96bf bc6e c4bf e1f5 e9bf
000001e0: 383d d8bf b66e 8ebf d105 dcbf 7644 edbf
000001f0: aab0 1740 2112 02c0 974a c3bf 73ff 42bf
00000200: a243 89bf 256a 92bd c32f 26bf 41e9 4bbf
00000210: b9b6 a33f 3ed4 833f ea35 623f b2ca 4f3e
00000220: a082 8e3f c0c4 0d3f ade0 22bf fcc1 713f
00000230: 3309 d13e fb26 f4be a791 5abd 9dea ad3f
00000240: 5274 f53e 6361 dbbd c411 2e3f 613a 4dbe
00000250: 2453 0ebf 4be3 653f c785 0c3e c64f 38bf
00000260: 5ac1 3cbf 6803 0bbf 27ef 623f 0cc8 b8be
00000270: 8630 5dbf bc54 e6be 88d5 56bf 7892 84bf
00000280: 96a4 7cbe 7bfc 4fbf 56b1 24bf 27fc 133f
00000290: 6419 e93e 0576 653f 3cb2 d73e 7350 5e3f
000002a0: cf06 68bf be17 713f 8a90 bbbe 97b6 24bf
000002b0: a503 433f 5ec7 4fbf 83a2 4fbf 49dc 613f
000002c0: 135c 0cbf ca75 27bf 5a66 66be 8101 1cbf
000002d0: cdfb 23bf fbdb f9be 6436 173f bc87 28bf
000002e0: ef2c 74bf ba60 f63e cabf 66bf f3e6 533f
000002f0: cd17 683f b12b 6d3f 5a60 cebe b9e9 4fbf
00000300: eee9 36bd 964d 003f 3c29 29bf aebf 5d3f
00000310: eb7a 19bf eca2 08bf 7b90 1cbf 715a 0ebf
00000320: 4fc6 7a3f 9bae 06bf 3fc0 0fbf 1b36 3cbf
00000330: 7f6e 47bf 500b 433f 1b47 97bf 1a9b 553f
00000340: 8a62 06bf e6c8 02bf 0bb8 39be 2b30 4f3f
00000350: 1c59 ecbe 7b57 783f d1bd 513f f02a 6abf
00000360: b501 c9bf c622 5abf c0ea 1cbf 0b19 13bf
00000370: 9ce9 3e3f 922b 40bf c9e1 2d3f b539 fd3d
00000380: e7f0 40bf 72c2 23bf e31b 26bf 38b2 b7be
00000390: a7f0 62bf 24b8 34bf e17d f1be d396 243f
000003a0: 7b34 e9be 220d 30bf 5567 cc3e fcb8 18bf
000003b0: 1aa8 36bf 7fac 83bf 1496 fbbe 640e 2dbf
000003c0: 1509 09bf 17fc 16bf d048 5c3f 99b9 673f
000003d0: 69ca 5c3f 6174 573f 9b0d 103f 8adb 1cbf
000003e0: 6524 05bf 79a0 ac3e 9918 c63e 5677 4dbf
000003f0: 6d94 353f c118 71bf 6c86 d3be f3c8 43bf

lstm.weight_ih_l1 f4 [512, 128]
0.084671825 -1.087948 0.5759896 -1.1806821 -1.538515 1.1831748 -1.2813407 -0.73827904
1.1910436 -0.6807482 -0.56921726 -1.2179949 0.7491299 0.21615005 -0.5389589 -1.5015931
1.0333359 -0.7602884 1.068141 -0.7470512 0.021014823 1.317015 0.4719791 0.84791636
0.96695614 -1.4377524 -1.1326904 0.34281498 0.22073859 0.7181898 1.0690595 0.9256022
0.74472207 -0.27968055 0.64619094 -0.24220851 -0.8182258 -1.3912203 0.17348178 1.3265862
0.67435354 -1.0289207 0.21514507 0.6923662 -1.2700224 0.42262173 0.2151997 -1.30691
0.46968442 0.4271873 -0.621523 -0.11382498 0.6878812 -0.5000146 -0.6585375 -0.9208076
-0.13895394 -0.39307207 0.6310372 -1.212131 1.292632 1.4301093 -0.68614805 0.6532496
0.68361485 0.6846721 0.7047303 -1.3079091 -0.7020436 0.750021 0.5693423 -0.5536489
0.86699367 -0.118602514 -0.11447964 -0.43469524 0.009220068 1.288158 -0.16881071 0.4157396
-0.6063039 -0.043205455 0.63564575 1.3847213 -0.77329975 -1.4086481 -1.234525 -0.47851053
0.12788038 -0.84311175 -0.3089416 0.24816915 -0.51155925 0.3239669 1.3117541 -0.9393994
0.7657962 -0.050680123 0.47452685 0.2549954 -1.5090322 -0.46258804 0.4356684 -1.374969
0.36522332 0.10253402 0.05062685 0.33176792 0.6507057 1.1929827 -0.7229192 -0.6236894
-0.5798791 0.22414884 -0.9181469 -0.74858195 -1.3001715 -0.6367031 0.37751186 -0.6118335
-0.6874712 0.7647683 -0.61953306 0.35743698 -1.3889577 -0.04519755 0.5979837 -0.79302716
-0.7834979 0.84790087 -0.2106927 -0.17315781 -0.424829 -0.6051967 -0.4492734 -0.117369376
1.0641612 -0.34023938 0.32382014 -0.28218728 0.28524676 -0.47578502 0.08845717 -0.2363955
0.13954031 -0.47322437 0.19102585 0.008660576 0.9579389 0.56503993 -0.7368305 0.13009289
-0.69036835 0.8375382 -0.22951949 -0.42998767 -0.38024935 -0.053004 1.4926658 1.462258
-1.0897653 0.17589991 -0.25767362 -0.77545494 0.51050913 -0.11024743 0.7017563 0.17807826
-0.5692525 -0.44835758 0.982672 -0.19905943 -0.2764901 0.9448264 0.93341005 -0.3640336
1.4815052 -0.16862057 0.23916693 0.09393975 -0.117338926 0.42715263 0.028589502 0.19287181
1.1971123 0.49070638 -1.0452297 -0.35841763 0.36876267 -0.62691987 0.061496034 -0.31160134
-0.9639409 0.09235693 -0.76770055 -0.28347284 0.23993415 -0.26507083 -0.31068817 0.7468772
0.56859905 -0.89152586 -0.5178585 0.26326567 0.19027779 0.23869191 -0.567544 -0.5553699
0.27904606 1.0010352 -0.84267867 0.5425926 0.08366751 0.3944223 -0.2947114 -0.53465754
0.40638846 -0.80642617 -0.28847116 0.9724136 -0.42898515 -1.4815717 0.29602405 0.9635397
-0.15065566 -0.93779814 0.55047905 0.9680081 1.038532 0.30458397 0.5114504 -0.4086366
-0.7707949 0.3835212 1.3924901 0.3466285 -0.17762227 -0.9823778 -0.06387871 0.19795202
0.03494741 -0.36229458 -0.48753127 0.018549865 -0.36666158 -0.07188009 -0.14566301 0.30766693
0.14172022 0.6979635 -0.041554682 -0.26271528 -0.23733617 -0.51321626 -0.42321613 -0.06507254
00000000: 6c68 ad3d e141 8bbf 0e74 133f 9720 97bf
00000010: 0fee c4bf 4672 973f f902 a4bf dbff 3cbf
00000020: 1e74 983f 8445 2ebf 39b8 11bf 42e7 9bbf
00000030: fac6 3f3f 7056 5d3e 36f9 09bf 3434 c0bf
00000040: 5a44 843f 43a2 42bf d8b8 883f bf3e 3fbf
00000050: 4727 ac3c f393 a83f 3fa7 f13e 0c11 593f
00000060: 708a 773f 4508 b8bf 00fc 90bf 7285 af3e
00000070: 4c09 623e 49db 373f f1d6 883f 44f4 6c3f
00000080: 1ba6 3e3f 4a32 8fbe c56c 253f 8205 78be
00000090: 3f77 51bf 8213 b2bf 35a5 313e 94cd a93f
000000a0: 6fa2 2c3f acb3 83bf fd4e 5c3e e93e 313f
000000b0: 1890 a2bf e061 d83e 4f5d 5c3e d448 a7bf
000000c0: 7a7a f03e 4bb8 da3e 221c 1fbf 121d e9bd
000000d0: fb18 303f f500 00bf ea95 28bf 0cba 6bbf
000000e0: f149 0ebe be40 c9be a78b 213f 1c27 9bbf
000000f0: f774 a53f d20d b73f 66a7 2fbf 5e3b 273f
00000100: 6201 2f3f ac46 2f3f 3469 343f 9169 a7bf
00000110: 21b9 33bf 6001 403f 6bc0 113f efbb 0dbf
00000120: 4cf3 5d3f e0e5 f2bd 4d74 eabd 6090 debe
00000130: c50f 173c 5de2 a43f b7dc 2cbe d2db d43e
00000140: bb36 1bbf 34f8 30bd aeb9 223f 8c3e b13f
00000150: f9f6 45bf 954e b4bf ea04 9ebf 55ff f4be
00000160: 13f3 023e 2cd6 57bf 982d 9ebe 0e20 7e3e
00000170: 8cf5 02bf fdde a53e 8fe7 a73f 7b7c 70bf
00000180: 380b 443f f695 4fbd 2ff5 f23e c28e 823e
00000190: f827 c1bf 57d8 ecbe ee0f df3e fcfe afbf
000001a0: 8dfe ba3e 5bfd d13d 1a5e 4f3d 7cdd a93e
000001b0: a694 263f a8b3 983f 3c11 39bf 1caa 1fbf
000001c0: f572 14bf 4687 653e ad0b 6bbf 11a3 3fbf
000001d0: 056c a6bf f9fe 22bf 3c49 c13e 1fa1 1cbf
000001e0: 1dfe 2fbf dbc7 433f b899 1ebf fb01 b73e
000001f0: 5ec9 b1bf 1121 39bd 7615 193f d403 4bbf
00000200: 5293 48bf 0810 593f d4bf 57be 4850 31be
00000210: 3083 d9be 2cee 1abf 2a07 e6be 5b5f f0bd
00000220: 6f36 883f db33 aebe c1cb a53e da7a 90be
00000230: dd0b 923e 189a f3be 0829 b53d a911 72be
00000240: a8e3 0e3e 774a f2be 489c 433e 17e5 0d3c
00000250: 7c3b 753f 75a6 103f eca0 3cbf 1237 053e
00000260: fbbb 30bf e768 563f 2807 6bbe 5827 dcbe
00000270: 0bb0 c2be b91a 59bd ac0f bf3f 452b bb3f
00000280: 6e7d 8bbf 1b1f 343e cced 83be 3784 46bf
00000290: bab0 023f 68c9 e1bd 4da6 333f 265a 363e
000002a0: 88ba 11bf 208f e5be 6490 7b3f 3cd6 4bbe
000002b0: 1c90 8dbe 25e0 713f f6f3 6e3f 9d62 babe
000002c0: f6a1 bd3f dfaa 2cbe 2de8 743e 7c63 c03d
000002d0: 644f f0bd c0b3 da3e 8834 ea3c 3080 453e
000002e0: fa3a 993f de3d fb3e 16ca 85bf 8482 b7be
000002f0: 76ce bc3e d27d 20bf 44e3 7b3d 368a 9fbe
00000300: d5c4 76bf a125 bd3d 0688 44bf 5a23 91be
00000310: 4cb1 753e 5db7 87be 8512 9fbe 5833 3f3f
00000320: b58f 113f 0a3b 64bf 6092 04bf c2ca 863e
00000330: 2ed8 423e a76b 743e 904a 11bf b92c 0ebf
00000340: 20df 8e3e ec21 803f cab9 57bf 59e7 0a3f
00000350: df59 ab3d b8f1 c93e 6ae4 96be 51df 08bf
00000360: 2612 d03e f271 4ebf 7eb2 93be 19f0 783f
00000370: f1a3 dbbe 24a4 bdbf 7790 973e 8aaa 763f
00000380: 7a45 1abe 8a13 70bf 32ec 0c3f 61cf 773f
00000390: 9eee 843f 6ef2 9b3e 6aee 023f d138 d1be
000003a0: d152 45bf e45c c43e 1e3d b23f 4a79 b13e
000003b0: 9de2 35be 1d7d 7bbf d7d2 82bd efb3 4a3e
000003c0: 0425 0f3d ad7e b9be b39d f9be e3f5 973c
000003d0: 11bb bbbe de35 93bd af28 15be 8586 9d3e
000003e0: 1b1f 113e bcad 323f 3e35 2abd 9e82 86be
000003f0: 4108 73be 2462 03bf c9af d8be c044 85bd

lstm.weight_hh_l1 f4 [512, 128]
0.15684956 0.91447717 -0.6699195 0.67471206 0.131438 -0.66845614 0.60817283 -0.40919533
-0.8767537 0.10472515 -0.8541038 0.10818228 0.50233996 0.5681845 -0.9734452 0.103903085
0.7132567 0.79621094 -0.036381528 -0.588071 -0.20247072 0.96935195 0.20151223 0.076457635
0.302144 -0.14332384 -0.4528844 -0.28056383 -0.42097622 0.57308584 0.39092168 -0.9375577
-0.67128366 0.40130812 -0.18304412 1.0662307 0.57573456 -0.461152 -0.41832292 0.13584347
0.5003237 0.21785694 -0.038044527 1.0478584 -0.28917807 0.89863604 -0.32989573 -0.108942375
1.2874666 0.836868 -0.19449472 -0.61921215 0.31359562 -1.0047609 0.44196773 0.07730859
0.1429272 0.10186513 0.20299661 -0.24201404 -0.80905765 -1.1033621 -0.502137 0.11789965
-0.39819074 0.57520497 -0.823145 -0.08133628 1.3326852 -0.061938968 -0.7386084 0.83538455
-0.32297668 0.084502265 -0.87493014 -1.0492224 -0.842051 -0.7199124 0.18084998 -0.5369815
0.31740308 0.34452474 -0.1842284 0.48130843 -0.8695396 -0.8066245 0.3662456 -0.4596726
-0.35196224 0.14611045 1.0275904 0.68534654 0.43289 -0.2523816 -0.050571494 0.22736575
0.31597474 -0.6212697 -0.62976205 -0.7042046 0.6810069 -0.21983664 0.63349724 0.72359294
0.5772265 -0.97598433 -0.7578293 0.27504027 0.09174998 -0.22437385 0.40094095 0.0009749099
0.20557573 -0.15669362 -1.2412809 0.44600302 1.0514259 -0.6876365 -0.42187512 -0.9438559
0.6142849 0.5518859 0.53051496 -0.5867411 -0.14480743 -0.87928367 0.6392127 0.49638978
-0.74143 1.3354716 -1.0905997 0.508396 0.38800162 -0.5975966 0.55068445 -0.59599715
-1.6336545 -0.42991567 -0.3248023 0.35531855 0.48777592 1.4361757 -1.4549929 -0.64457065
0.8532163 0.6283596 -0.30906856 -1.2069514 -0.095488615 1.1113851 -0.39363742 -0.3939956
-0.5584577 0.7144953 -0.6359537 0.3961077 -0.22191633 0.38167143 -0.8583699 -0.68404925
-0.9969516 0.55527955 0.67159134 1.390888 0.595883 0.95768166 -0.92960477 -0.29184285
1.2421556 -0.35841718 1.1291878 1.1365196 0.56289786 0.5384679 0.6688707 -1.0657927
0.81776583 0.74647284 -0.71659917 -0.43427217 -0.50061965 -1.4647568 1.3348591 -0.17067733
-0.14084624 0.26275054 -0.14586018 0.48217076 -0.64675313 -1.3950995 0.028674379 0.14372326
1.301817 1.12611 -0.30437064 -0.8438216 1.4275012 0.37546548 -0.42200282 1.625241
1.0173715 0.4283761 -0.46641955 -0.9344797 -0.9728751 0.3182893 -0.6556294 -0.5772482
0.34334737 -0.4304981 0.46116844 0.9185235 -0.7770623 -0.61274135 -0.46521235 0.726292
0.32473212 -0.86873 1.6129013 0.6290783 1.1715224 1.0056213 -0.97785914 -0.33652818
0.69272304 -1.2854061 -1.1570377 0.4643492 0.51693314 0.45993692 -0.66154236 1.0897549
0.48796487 -1.4909037 -0.693654 0.0094751315 -0.3522834 1.1210287 0.6911342 0.42561153
0.2719552 0.80028874 -1.2552898 0.8455188 1.4095004 -0.19955787 0.5443527 -1.1150887
0.49593014 0.6266113 0.6720806 -0.9240847 0.45915177 -0.953593 1.0344819 0.7118566
00000000: 2c9d 203e 2d1b 6a3f d87f 2bbf eeb9 2c3f
00000010: af97 063e f11f 2bbf 37b1 1b3f 0d82 d1be
00000020: ee72 60bf 247a d63d 8ca6 5abf ac8e dd3d
00000030: 5a99 003f 8a74 113f b433 79bf 24cb d43d
00000040: fe97 363f 7bd4 4b3f cc04 15bd d28b 16bf
00000050: 7c54 4fbe 7327 783f 3959 4e3e d295 9c3d
00000060: 9eb2 9a3e 7cc3 12be 77e0 e7be 10a6 8fbe
00000070: 328a d7be c1b5 123f e326 c83e c803 70bf
00000080: 3fd9 2bbf 4278 cd3e eb6f 3bbe 3f7a 883f
00000090: 5763 133f 1d1c ecbe 6c2e d6be 8d1a 0b3e
000000a0: 3715 003f e415 5f3e 94d4 1bbd 3920 863f
000000b0: 260f 94be 030d 663f 18e8 a8be 2e1d dfbd
000000c0: b5cb a43f fb3c 563f a029 47be b084 1ebf
000000d0: 9b8f a03e 019c 80bf 9849 e23e f753 9e3d
000000e0: 825b 123e aa9e d03d 58de 4f3e 87d2 77be
000000f0: 671e 4fbf f83a 8dbf 0d8c 00bf 5f75 f13d
00000100: a8df cbbe a240 133f a1b9 52bf a393 a6bd
00000110: 6e95 aa3f b7b3 7dbd 7115 3dbf c3db 553f
00000120: 335d a5be 860f ad3d 6cfb 5fbf eb4c 86bf
00000130: a890 57bf 2e4c 38bf bd30 393e 9f77 09bf
00000140: a882 a23e 8c65 b03e 5fa6 3cbe 0f6e f63e
00000150: 269a 5ebf f17e 4ebf 8b84 bb3e 355a ebbe
00000160: 6534 b4be fa9d 153e 1588 833f df72 2f3f
00000170: c2a3 dd3e 2938 81be 0e24 4fbd 91d2 683e
00000180: 71c7 a13e 880b 1fbf 1638 21bf c146 34bf
00000190: 7856 2e3f db1c 61be e02c 223f 633d 393f
000001a0: 1ec5 133f 1cda 79bf 1a01 42bf 14d2 8c3e
000001b0: 6ae7 bb3d 42c2 65be 2248 cd3e 1991 7f3a
000001c0: 7282 523e 4b74 20be 4be2 9ebf 825a e43e
000001d0: 2095 863f f208 30bf 0400 d8be 8aa0 71bf
000001e0: c641 1d3f 6548 0d3f d4cf 073f aa34 16bf
000001f0: 6648 14be bc18 61bf 72a3 233f cd26 fe3e
00000200: 5bce 3dbf bcf0 aa3f c598 8bbf 3e26 023f
00000210: 26a8 c63e 17fc 18bf a8f9 0c3f 4593 18bf
00000220: 971b d1bf e81d dcbe 7d4c a6be 50ec b53e
00000230: c4bd f93e 9bd4 b73f 353d babf 9502 25bf
00000240: 626c 5a3f 2ddc 203f 3c3e 9ebe 627d 9abf
00000250: 898f c3bd de41 8e3f d88a c9be cbb9 c9be
00000260: 15f7 0ebf 2ae9 363f ddcd 22bf a1ce ca3e
00000270: 093e 63be 706a c33e 21be 5bbf da1d 2fbf
00000280: 3838 7fbf cd26 0e3f 69ed 2b3f 9e08 b23f
00000290: ca8b 183f a02a 753f 94fa 6dbf 6d6c 95be
000002a0: f4fe 9e3f 7582 b7be 3a89 903f 7979 913f
000002b0: 131a 103f 08d9 093f 1c3b 2b3f e56b 88bf
000002c0: 1a59 513f d818 3f3f 0b73 37bf ec58 debe
000002d0: 9c28 00bf 277d bbbf aadc aa3f 0ac6 2ebe
000002e0: ff39 10be 3d87 863e 5f5c 15be 16df f63e
000002f0: 9d91 25bf 9f92 b2bf 88e6 ea3c 312c 133e
00000300: f1a1 a63f 5f24 903f 78d6 9bbe b104 58bf
00000310: 5cb8 b63f 033d c03e c110 d8be e607 d03f
00000320: 3b39 823f 1d54 db3e 8bce eebe 103a 6fbf
00000330: 580e 79bf d1f6 a23e 54d7 27bf 8ac6 13bf
00000340: 3acb af3e 3f6a dcbe 451e ec3e 5b24 6b3f
00000350: 8eed 46bf 9edc 1cbf 5030 eebe 46ee 393f
00000360: 4a43 a63e 1765 5ebf 8d73 ce3f 470b 213f
00000370: 72f4 953f 33b8 803f fa54 7abf 6c4d acbe
00000380: 4c56 313f 3088 a4bf d019 94bf 2ebf ed3e
00000390: bb55 043f da7c eb3e d75a 29bf 177d 8b3f
000003a0: 88d6 f93e efd5 bebf 4f93 31bf 953d 1b3c
000003b0: 7d5e b4be de7d 8f3f 2cee 303f c1e9 d93e
000003c0: b63d 8b3e b9df 4c3f 56ad a0bf ec73 583f
000003d0: 826a b43f e658 4cbe b35a 0b3f 3abb 8ebf
000003e0: 8eea fd3e 9969 203f 790d 2c3f d190 6cbf
000003f0: f115 eb3e ac1e 74bf e769 843f 3c3c 363f

lstm.bias_ih_l1 f4 [512]
-1.1954453 -0.042506 0.511918 -0.32405877 -0.5659069 -0.6079829 1.0101182 -0.8559608
0.93573505 -0.9521655 -0.6992144 -0.60056424 0.522948 0.84781283 0.7242441 0.5503761
0.37944523 -0.9773659 0.96456736 0.4537617 1.0384036 0.4956011 -1.1298645 -0.8033802
-1.0898112 0.95709616 -0.51211643 0.8629152 0.94343466 -0.5350248 0.89327645 -0.2731475
0.66821873 -0.5421755 -0.7994447 0.88200355 -0.93561816 0.6704578 -0.6425728 1.1595551
-0.026779022 -0.37218928 0.7460686 0.8890199 -0.6036726 -0.44903392 0.5981665 -1.0755264
0.074673034 0.6979388 0.7955546 -1.509643 -0.9690713 0.75396186 -0.49782622 -0.67359686
1.2448689 -0.5801444 -0.56255764 0.69060814 -0.09455765 0.6818818 -0.82417995 -0.86599505
-0.8205451 0.94099784 -0.7825528 -1.0233467 0.14711131 -0.8727329 -0.63278425 0.9117287
0.57473326 -0.8345961 -0.6294583 -0.5634171 0.6759253 0.95373774 0.263762 0.86409146
-1.1413734 1.1254808 -1.3971484 0.58173144 -0.69657195 -0.49063498 0.8236154 0.8802253
-0.108899936 0.48014006 1.0888507 -0.28713745 -0.31056696 0.81700134 1.4913795 -1.1757495
-0.21563959 0.7797363 0.6294392 1.0291191 -0.70288515 0.68558806 -0.1349388 0.23022632
-0.883515 -0.30993918 -0.7293683 -0.6487806 -0.71761817 0.7559334 -0.32259387 0.5311575
-0.65336645 -0.16579089 0.39548618 -0.053231165 0.8405091 0.8259394 0.51838046 0.52425677
-1.4620924 -0.83287024 -0.26700008 0.8662029 -0.850205 1.1848046 0.09491615 -0.3480084
0.93665975 1.3906822 1.3479383 0.78534967 0.69855434 -0.4933549 1.0453116 -0.8099985
-0.5640681 -0.11443475 -1.0000697 0.80929285 0.69472325 -0.50050175 -0.7610458 1.0752116
0.20274663 -0.18110943 0.8120422 0.5707191 0.847027 -0.96195644 0.39004356 -1.1434414
-0.22611523 0.5333256 -0.8148398 0.5936423 0.99212074 -0.55822307 0.8959603 -0.17110035
0.6227671 -0.97937983 -0.18050177 -0.28149626 -0.47673437 0.3473746 -0.5800828 0.9229798
-0.19737059 -0.18250579 0.29615346 0.7935519 -0.029195022 0.8034593 -0.8572211 0.0494506
0.666075 -0.8381374 -0.9482319 -0.82781416 -0.9370062 -0.029283166 0.78105974 -0.8978556
0.7837386 0.652204 0.4239185 0.4067372 -0.8459321 -0.72942513 0.74529314 -0.64810765
0.028109329 0.54430974 0.21834216 -0.45639274 0.0030959654 0.6828051 -1.0201609 -0.3764917
0.32418373 -0.8472854 -0.79921603 0.47045225 0.23249221 0.11462945 0.9504166 0.79968643
0.31270325 0.24784039 0.5116362 -0.85044044 1.0162618 -0.23773696 0.75234205 -0.8846603
-0.8865307 0.40490064 -0.12406454 -0.38452655 -0.9366669 0.3094307 1.1503736 -0.8227193
-0.24662527 0.39756027 0.52615 0.5776665 -0.74192315 0.7427384 0.81939054 -0.6669737
-0.19663769 -0.34390113 0.20443475 -0.8923133 -0.8891144 0.062216107 -0.28935316 0.9497122
-0.99277556 -0.7997134 -0.9998122 -0.8313329 0.13134041 0.8289193 -1.0648953 0.41974622
0.38119063 -0.18751481 0.5651483 0.6962787 -0.12668988 0.8024119 -0.7261091 -0.18997422
00000000: 5a04 99bf c51a 2ebd 0f0d 033f 08eb a5be
00000010: 46df 10bf c4a4 1bbf 8e4b 813f 3f20 5bbf
00000020: 558c 6f3f 1ec1 73bf b7ff 32bf 94be 19bf
00000030: ecdf 053f 430a 593f 1068 393f 73e5 0c3f
00000040: a546 c23e a734 7abf e3ed 763f 7453 e83e
00000050: 69ea 843f 6dbf fd3e 669f 90bf 53aa 4dbf
00000060: ef7e 8bbf 4104 753f 101a 03bf 03e8 5c3f
00000070: ef84 713f 63f7 08bf c4ad 643f fdd9 8bbe
00000080: 6210 2b3f 03cc 0abf 68a8 4cbf fcca 613f
00000090: ac84 6fbf 1fa3 2b3f a77f 24bf 4d6c 943f
000000a0: ae5f dbbc 988f bebe 5afe 3e3f cf96 633f
000000b0: 4a8a 1abf c6e7 e5be 7121 193f d9aa 89bf
000000c0: 2dee 983d 1eac 323f 77a9 4b3f fb3b c1bf
000000d0: 0f15 78bf a503 413f 14e3 febe d870 2cbf
000000e0: dd57 9f3f 5884 14bf c703 10bf b2cb 303f
000000f0: 71a7 c1bd ce8f 2e3f 75fd 52bf dab1 5dbf
00000100: 3e0f 52bf 3ce5 703f 6155 48bf 06fd 82bf
00000110: 59a4 163e 6c6b 5fbf 26fe 21bf 0d67 693f
00000120: b821 133f 17a8 55bf 2e24 21bf 1a3c 10bf
00000130: 7109 2d3f 2828 743f d00b 873e 1935 5d3f
00000140: 8618 92bf c10f 903f c2d5 b2bf 5aec 143f
00000150: 8a52 32bf 8234 fbbe 75d8 523f 7256 613f
00000160: ee06 dfbd ebd4 f53e 765f 8b3f ae03 93be
00000170: a202 9fbe 0027 513f 86e5 be3f f67e 96bf
00000180: a0d0 5cbe cc9c 473f ed22 213f 2dba 833f
00000190: 48f0 33bf b382 2f3f 662d 0abe 73c0 6b3e
000001a0: 0a2e 62bf 59b0 9ebe e2b7 3abf 7c16 26bf
000001b0: d3b5 37bf da84 413f 062b a5be f0f9 073f
000001c0: 0643 27bf 16c5 29be 2a7d ca3e ec08 5abd
000001d0: 9b2b 573f c470 533f 95b4 043f b135 063f
000001e0: d825 bbbf fc36 55bf 3cb4 88be 79bf 5d3f
000001f0: 09a7 59bf ada7 973f 6663 c23d 282e b2be
00000200: efc8 6f3f e001 b23f 3e89 ac3f ad0c 493f
00000210: 75d4 323f 0399 fcbe c5cc 853f 105c 4fbf
00000220: c466 10bf c45c eabd 4902 80bf d12d 4f3f
00000230: 62d9 313f e220 00bf e6d3 42bf 89a0 893f
00000240: d09c 4f3e c074 39be ffe1 4f3f a61a 123f
00000250: c3d6 583f c742 76bf cab3 c73e 4a5c 92bf
00000260: c08a 67be 0788 083f 5799 50bf f1f8 173f
00000270: a0fb 7d3f b5e7 0ebf a75d 653f ee34 2fbe
00000280: aa6d 1f3f a3b8 7abf 75d5 38be 4720 90be
00000290: 8716 f4be 15db b13e 4e80 14bf 6748 6c3f
000002a0: 841b 4abe cce2 3abe 6da1 973e 3826 4b3f
000002b0: 662a efbc 82af 4d3f d872 5bbf b68c 4a3d
000002c0: e483 2a3f 2c90 56bf 53bf 72bf a1eb 53bf
000002d0: a3df 6fbf 40e3 efbc 88f3 473f ddd9 65bf
000002e0: 18a3 483f d7f6 263f d80b d93e dc3f d03e
000002f0: 028f 58bf 9bbb 3abf 88cb 3e3f 62ea 25bf
00000300: 8945 e63c e257 0b3f 1695 5f3e 4fac e9be
00000310: aee5 4a3b 51cc 2e3f a294 82bf 85c3 c0be
00000320: 69fb a53e b2e7 58bf 6c99 4cbf 1edf f03e
00000330: 7012 6e3e d8c2 ea3d 814e 733f 40b8 4c3f
00000340: a41a a03e dfc9 7d3e 97fa 023f 77b6 59bf
00000350: de14 823f 5171 73be 7d99 403f 1979 62bf
00000360: adf3 62bf 234f cf3e 8d15 febd aae0 c4be
00000370: 67c9 6fbf b36d 9e3e 713f 933f bb9d 52bf
00000380: 568b 7cbe 058d cb3e c4b1 063f f4e1 133f
00000390: adee 3dbf 1b24 3e3f 94c3 513f cabe 2abf
000003a0: 645b 49be cf13 b0be 5857 513e a56e 64bf
000003b0: 009d 63bf 51d6 7e3d 1926 94be 5720 733f
000003c0: 8a26 7ebf 04ba 4cbf b1f3 7fbf 3cd2 54bf
000003d0: 1a7e 063e 0e34 543f 7d4e 88bf fae8 d63e
000003e0: 6b2b c33e e203 40be 8fad 103f 523f 323f
000003f0: feba 01be de6a 4d3f 49e2 39bf 9a88 42be

lstm.bias_hh_l1 f4 [512]
-1.0820928 0.03037578 0.47211316 -0.37531775 -0.48846078 -0.6184321 1.0248183 -0.85596037
0.86071354 -0.9884996 -0.7289708 -0.61194426 0.6059641 0.761082 0.7264325 0.43251616
0.36804652 -0.9532988 1.079456 0.49360347 1.1117318 0.4747085 -1.0271508 -0.74419445
-1.1162382 1.0270543 -0.57829344 0.7921565 0.8598402 -0.4991947 0.77441794 -0.13724768
0.80769956 -0.6429038 -0.7179008 0.8732288 -0.9211248 0.58005035 -0.547881 1.2048423
0.10064314 -0.33566096 0.69401604 0.9158224 -0.53093857 -0.39940768 0.6648774 -1.0449061
-0.037531346 0.65169567 0.76737267 -1.3577273 -1.0735685 0.6202445 -0.42632613 -0.6313149
1.3112844 -0.5828811 -0.6871933 0.74069047 -0.08568311 0.7296873 -0.94030607 -0.83459204
-0.9347411 0.8844982 -0.7281644 -1.1056433 0.1527703 -0.84410894 -0.75042856 0.93096507
0.5659831 -0.92067593 -0.66912 -0.5753902 0.73946846 0.9164296 0.20790528 0.862999
-1.0784265 1.0402248 -1.4328945 0.6024893 -0.63703984 -0.34320843 0.84348494 0.7355425
-0.16711596 0.47797713 1.1169205 -0.35406426 -0.38174486 0.81025225 1.4389408 -1.2831913
-0.24212965 0.88070214 0.5633484 1.009474 -0.7351239 0.6657802 0.0139746275 0.29482192
-0.905634 -0.24561924 -0.7549285 -0.59070504 -0.68672866 0.65940726 -0.43256876 0.6732705
-0.7177118 -0.010512981 0.3707295 0.014511939 0.90030754 0.7685497 0.51449674 0.59097195
-1.49499 -0.86725277 -0.30436498 0.8712976 -0.803025 1.0873604 0.041781258 -0.42895916
0.90470904 1.3783375 1.3042608 0.83455294 0.6536438 -0.5799469 1.0871997 -0.88795424
-0.5470482 -0.14248857 -0.98858094 0.8344547 0.7695917 -0.42225486 -0.67882246 1.0054492
0.20458424 -0.2081867 0.8219244 0.6641708 0.8713401 -0.86143744 0.35083935 -1.151256
-0.19724873 0.47307202 -0.76133996 0.50513434 1.098124 -0.5026419 1.0148507 -0.108494006
0.6540273 -0.87986135 -0.1132917 -0.3131538 -0.51749814 0.2955229 -0.5229994 0.9514096
-0.23735803 -0.14893335 0.31229332 0.769517 -0.05724972 0.70091945 -0.8022756 0.09517769
0.66878885 -0.8354791 -0.83866364 -0.81308824 -0.79533106 -0.08498982 0.79398847 -0.8303641
0.64709926 0.7915561 0.4423624 0.46937135 -0.9242132 -0.79516774 0.72705764 -0.5695664
0.0736807 0.63935006 0.15214042 -0.5098567 0.092932545 0.8390624 -1.0095373 -0.46266648
0.29763475 -0.99711514 -0.86685216 0.41726664 0.26501063 0.0396221 0.8584038 0.80275077
0.14657854 0.3640019 0.38852438 -0.7983346 1.0247376 -0.25903103 0.70523643 -0.86948645
-0.8572689 0.46170178 -0.085530885 -0.45721903 -0.93050456 0.43025178 1.1239985 -0.6772954
-0.26586506 0.38616118 0.6525137 0.5820448 -0.7287394 0.7098024 0.9042664 -0.626584
-0.043910034 -0.40426987 0.2103248 -0.93856657 -0.9649402 0.20721138 -0.24408385 0.89208525
-0.8468994 -0.8066398 -1.0859885 -0.8031137 0.12805729 0.7015146 -1.1565907 0.54172266
0.3804337 -0.10806993 0.45289373 0.7283498 -0.057001207 0.86940694 -0.7446535 -0.25606436
00000000: 0482 8abf a1d6 f83c d1b8 f13e a629 c0be
00000010: 8817 fabe 9151 1ebf 3f2d 833f 3820 5bbf
00000020: b957 5c3f 4f0e 7dbf d59d 3abf 61a8 1cbf
00000030: 7720 1b3f 45d6 423f 7bf7 393f c272 dd3e
00000040: 9870 bc3e 640b 74bf 9d2b 8a3f 98b9 fc3e
00000050: 3a4d 8e3f fe0c f33e ad79 83bf 8783 3ebf
00000060: e5e0 8ebf 8476 833f 0a0b 14bf c5ca 4a3f
00000070: 7d1e 5c3f 7396 ffbe 4140 463f a88a 0cbe
00000080: 66c5 4e3f 5895 24bf 59c8 37bf ec8b 5f3f
00000090: d6ce 6bbf 2e7e 143f ee41 0cbf 4638 9a3f
000000a0: fe1d ce3d c1db abbe 09ab 313f 5673 6a3f
000000b0: 97eb 07bf 2a7f ccbe 6835 2a3f 7cbf 85bf
000000c0: 78ba 19bd 87d5 263f 8972 443f 02ca adbf
000000d0: b16a 89bf 58c8 1e3f 6b47 dabe da9d 21bf
000000e0: 2bd8 a73f b237 15bf e6eb 2fbf e49d 3d3f
000000f0: a07a afbd c9cc 3a3f e6b7 70bf d3a7 55bf
00000100: 314b 6fbf 796e 623f fb68 3abf b885 8dbf
00000110: d16f 1c3e 8617 58bf 161c 40bf ba53 6e3f
00000120: 45e4 103f 6bb1 6bbf 734b 2bbf c64c 13bf
00000130: ce4d 3d3f 219b 6a3f 1fe5 543e 81ed 5c3f
00000140: e109 8abf 1626 853f 1669 b7bf bd3c 1a3f
00000150: 0b15 23bf 04b9 afbe a1ee 573f 834c 3c3f
00000160: 7220 2bbe 6bb9 f43e 40f7 8e3f e947 b5be
00000170: 1074 c3be b16c 4f3f 362f b83f 9d3f a4bf
00000180: d6f0 77be b275 613f 9a37 103f 7236 813f
00000190: 1431 3cbf 9270 2a3f d6f5 643c e6f2 963e
000001a0: a1d7 67bf 9c83 7bbe ff42 41bf 7238 17bf
000001b0: 73cd 2fbf eace 283f a779 ddbe 755b 2c3f
000001c0: f6bb 37bf a33e 2cbc 42d0 bd3e 7cc3 6d3c
000001d0: 8e7a 663f acbf 443f 0fb6 033f f049 173f
000001e0: d55b bfbf 4704 5ebf bad5 9bbe 5c0d 5f3f
000001f0: 0c93 4dbf a02e 8b3f d322 2b3d 89a0 dbbe
00000200: 039b 673f 5d6d b03f 05f2 a63f 43a5 553f
00000210: 3355 273f 6677 14bf 5c29 8b3f f850 63bf
00000220: 5a0b 0cbf 86e8 11be a413 7dbf d39e 553f
00000230: f603 453f ca31 d8be 4fc7 2dbf 8fb2 803f
00000240: 887e 513e e52e 55be a369 523f 1907 2a3f
00000250: 2510 5f3f 2a87 5cbf 37a1 b33e 5b5c 93bf
00000260: 92fb 49be 7f36 f23e 2de7 42bf 7c50 013f
00000270: 548f 8c3f 24ad 00bf a1e6 813f 1b32 debd
00000280: 556e 273f 983e 61bf 7b05 e8bd b255 a0be
00000290: c27a 04bf c74e 973e 4ae3 05bf 948f 733f
000002a0: fc0d 73be fc81 18be e9e4 9f3e 11ff 443f
000002b0: af7e 6abd 756f 333f ef61 4dbf 85ec c23d
000002c0: bf35 2b3f f5e1 55bf a9b2 56bf 8d26 50bf
000002d0: d19a 4bbf 250f aebd d442 4b3f be92 54bf
000002e0: 4ca8 253f 6ca3 4a3f 537d e23e 7151 f03e
000002f0: 3c99 6cbf 1d90 4bbf 7320 3a3f 1bcf 11bf
00000300: e8e5 963d 72ac 233f b3ca 1b3e f885 02bf
00000310: 6b53 be3d cbcc 563f 8538 81bf 9fe2 ecbe
00000320: 9563 983e f042 7fbf 06ea 5dbf f9a3 d53e
00000330: 79af 873e c84a 223d 5ac0 5b3f 1381 4d3f
00000340: af18 163e 755e ba3e abec c63e a85f 4cbf
00000350: 9a2a 833f b79f 84be 608a 343f aa96 5ebf
00000360: fa75 5bbf 2d64 ec3e d12a afbd 9d18 eabe
00000370: 8c35 6ebf f649 dc3e 2fdf 8f3f 3b63 2dbf
00000380: 771f 88be ebb6 c53e 230b 273f e300 153f
00000390: aa8e 3abf 9cb5 353f 017e 673f cf67 20bf
000003a0: 02db 33bd 76fc cebe 625f 573e e645 70bf
000003b0: 5206 77bf 382f 543e 1ef1 79be b35f 643f
000003c0: 66ce 58bf f27f 4ebf ac01 8bbf dc98 4dbf
000003d0: 7321 033e 7696 333f 2a0b 94bf 56ae 0a3f
000003e0: 35c8 c23e c453 ddbd b0e1 e73e 2275 3a3f
000003f0: 197a 69bd 7491 5e3f 9da1 3ebf de1a 83be
