models/translations/trained_models/FE_bert_1.model (torch, 798123 bytes, 8 tensors)

lstm.weight_ih_l0 f4 [512, 1]
0	0xbfe4cc3a	-1.7874825
1	0xbf93ec4b	-1.1556486
2	0xbfe08bc2	-1.7542651
3	0xbfb2a347	-1.3956078
4	0x3fa0279c	1.2512088
5	0xbff70012	-1.9296896
6	0x3fd21ab8	1.6414404
7	0xbfbce115	-1.475619
8	0x3fa5a02d	1.2939507
9	0xbf95cbd3	-1.1702827
10	0xbfdf7185	-1.7456518
11	0x3f7f57e7	0.99743503
12	0xbf8582ec	-1.0430579
13	0xbfdb5f77	-1.7138509
14	0xbfdb87d2	-1.7150824
15	0x3f56fe05	0.83981353
16	0xbf4c29b0	-0.7975111
17	0xbf58524c	-0.84500575
18	0xbf013dcf	-0.5048494
19	0xc0019a3a	-2.0250382
20	0xbf80c766	-1.0060852
21	0x3fdab608	1.7086802
22	0xc009a589	-2.1507285
23	0xbfcb11ef	-1.5864848
24	0xbf84a8f8	-1.0364065
25	0xbf7fe237	-0.9995455
26	0x3fcfdd21	1.6239358
27	0xbfd86371	-1.6905347
28	0xbfd81b01	-1.6883241
29	0xc005ba71	-2.0895045
30	0xbf1907eb	-0.59777707
31	0x3e4543c3	0.1926413
32	0xbf5a8997	-0.85366195
33	0xbfdd2e08	-1.7279673
34	0xc005574b	-2.083453
35	0xbf0873b1	-0.5330153
36	0xbf557c82	-0.8339311
37	0xbf76f672	-0.96469796
38	0xbeb25810	-0.3483281
39	0x3ff8626e	1.9405038
40	0xc00c6696	-2.1937613
41	0x400c44c2	2.1916966
42	0xbf49c800	-0.788208
43	0xbfe9ecde	-1.8275411
44	0x3fe838f3	1.814238
45	0xbff890cb	-1.9419187
46	0xbf309496	-0.68976724
47	0x3f0b1dd0	0.54342365
48	0xbf2ea9f9	-0.6822811
49	0xbfd9a48f	-1.7003344
50	0xbfd4002d	-1.6562554
51	0xbff5beea	-1.9198887
52	0xbff79208	-1.934144
53	0xbfce4eec	-1.6117835
54	0xbf6144eb	-0.87995785
55	0xbfe9b982	-1.8259737
56	0x3efc886e	0.49322838
57	0xc006862b	-2.101939
58	0xbfa13510	-1.2594318
59	0x3febec10	1.8431416
60	0x3fe6311e	1.7983739
61	0xbf95a35a	-1.1690476
62	0xbfe46ed7	-1.7846326
63	0xbfd2d0a5	-1.6469923
64	0xbf383c46	-0.7196697
65	0xbfc57ac7	-1.5428094
66	0xbf3939db	-0.72353905
67	0x3fe5075d	1.7892872
68	0xbfb49f2d	-1.4111077
69	0xbff54056	-1.9160259
70	0xbfdff147	-1.7495507
71	0xbf00d5e0	-0.5032635
72	0x3d2705df	0.040777083
73	0xbf3f4131	-0.7470885
74	0xc002ca33	-2.0435913
75	0xbfdd5e90	-1.7294483
76	0xbf9dce07	-1.23285
77	0x3fdbef14	1.7182336
78	0xbfece9e3	-1.8508877
79	0xbe70792f	-0.23483728
80	0xbfd936d3	-1.6969856
81	0xbec89add	-0.3918065
82	0xbf4df8ba	-0.8045765
83	0x3fe9fe4c	1.828073
84	0xbfcdc3a2	-1.6075327
85	0xbf9b8795	-1.2150751
86	0x3f8b7348	1.0894556
87	0xbfe12c0c	-1.7591567
88	0xbf96c572	-1.1779006
89	0xbfc889f2	-1.5667098
90	0xbf71b629	-0.9441858
91	0xbfc3019e	-1.5234869
92	0xbd79645d	-0.06088673
93	0x3f52f98d	0.82412034
94	0x3fc392ad	1.5279137
95	0xbf1ea3e2	-0.61968815
96	0xbfef59bb	-1.8699259
97	0xbf19d373	-0.6008827
98	0xbffcd8b6	-1.9753635
99	0xbf5f3705	-0.8719333
100	0xbfd1f007	-1.6401376
101	0xbe410be3	-0.1885219
102	0xc0228144	-2.5391397
103	0x3f4328ec	0.76234317
104	0xbe997e99	-0.299794
105	0xbff7ddc1	-1.9364549
106	0x3f399cfe	0.72505176
107	0xc00d8e42	-2.2118077
108	0xc00c841d	-2.1955636
109	0xbfb95448	-1.4478846
110	0xbfd61975	-1.6726519
111	0xbfcdec0c	-1.6087661
112	0xbfd0f026	-1.6323287
113	0xbfdab4a7	-1.7086381
114	0xc01185bd	-2.2737877
115	0xbfcf6927	-1.6203965
116	0x3fe33467	1.7750367
117	0xbf8b3e41	-1.0878373
118	0xbfcbdc3c	-1.5926585
119	0xbff045b8	-1.8771276
120	0xbfd4544f	-1.6588229
121	0xbf8a98ab	-1.082784
122	0xbfa46f09	-1.2846385
123	0xbfc72dcd	-1.5560852
124	0x40019d9d	2.025245
125	0xbfe7209e	-1.8056829
126	0xbfbc95f6	-1.4733264
127	0x3d8b2a39	0.06795163
128	0x3d43347a	0.047657467
129	0xbf66518e	-0.8996819
130	0xbf5e0a1f	-0.86734194
131	0xbd5ceffc	-0.053939804
132	0x3f90c180	1.1309052
133	0x3f30b42a	0.6902491
134	0x3f26a96b	0.6510226
135	0x3f02a62c	0.5103481
136	0x3f2ea348	0.682179
137	0x3f12eb68	0.5739045
138	0xbf53e64e	-0.8277329
139	0x3e52a66d	0.20571299
140	0x3f890558	1.0704756
141	0xbeedb677	-0.46428272
142	0xbd77cd14	-0.060498312
143	0x3fa34d3a	1.2757943
144	0x3f7d9d56	0.990682
145	0x3e97b9e9	0.29634026
146	0x3f234924	0.6378348
147	0xbf05d85e	-0.52283275
148	0xbe991f01	-0.29906467
149	0x3f2f2f70	0.6843176
150	0xbf6ac0a8	-0.9170022
151	0x3f0b79ce	0.54482734
152	0x3e91ba54	0.2846247
153	0xbfb7777c	-1.4333339
154	0x3f4dafd2	0.80346406
155	0xbeaf9c1d	-0.34298792
156	0xbee8f064	-0.45495903
157	0x3e589934	0.21152192
158	0xbeb6b7bc	-0.35687053
159	0xbe59c478	-0.21266353
160	0xbe656ba6	-0.22404346
161	0xbedd76b6	-0.43254632
162	0x3ed6c948	0.4195044
163	0x3f28f4f2	0.65998757
164	0x3f067704	0.52525353
165	0xbea58862	-0.32330614
166	0x3e95305a	0.29138452
167	0x3f2f94de	0.6858653
168	0xbf093389	-0.5359426
169	0x3f2993dc	0.6624124
170	0xbee62a7f	-0.44954297
171	0xbee83a45	-0.45356956
172	0x3ec54a4b	0.38533244
173	0xbf26c7c7	-0.65148586
174	0xbf00773b	-0.5018193
175	0x3f4bf347	0.79668087
176	0xbda29626	-0.07938795
177	0xbe989fd1	-0.2980943
178	0x3ecbc27b	0.39796814
179	0xbee74f3f	-0.45177647
180	0xbef0c340	-0.47023964
181	0xbe179dc6	-0.1480628
182	0x3ee30cc3	0.44345674
183	0xbf20d9b3	-0.6283218
184	0xbe82b5da	-0.25529367
185	0x3f36ff61	0.7148343
186	0xbf85763c	-1.0426707
187	0x3d448118	0.047974676
188	0x3f3e5752	0.7435199
189	0x3d95b4b4	0.07309857
190	0x3ebb3344	0.3656255
191	0xbf000c13	-0.50018424
192	0xbe86bf2b	-0.26317725
193	0xbf212263	-0.62943095
194	0xbf048ccc	-0.5177734
195	0x3f5569de	0.83364666
196	0xbec9ac3b	-0.39389214
197	0xbea455fe	-0.32096857
198	0xbed6d97f	-0.4196281
199	0xbe972c7d	-0.2952613
200	0x3f7b4ac4	0.9816096
201	0xbf407222	-0.7517415
202	0xbee2b543	-0.44278917
203	0xbeb96ea2	-0.3621722
204	0xbeb4c0c5	-0.3530332
205	0x3f8648f1	1.049101
206	0xbe664eb5	-0.22490962
207	0x3f567413	0.83770865
208	0xbf06ba4e	-0.5262803
209	0xbea4ea95	-0.32210222
210	0xbea0cf47	-0.3140814
211	0x3f1bb0a6	0.6081642
212	0x3ed08d00	0.40732574
213	0xbeb31b9a	-0.34981996
214	0x3f227424	0.63458467
215	0xbf041c6e	-0.5160588
216	0xbfac5870	-1.3464489
217	0xbe121d7f	-0.14269064
218	0xbed87ca1	-0.42282584
219	0xbeb93924	-0.36176407
220	0xbe13dcb8	-0.14439666
221	0xbf128436	-0.5723299
222	0x3f5a669a	0.8531281
223	0x3e707b44	0.23484522
224	0xbdb10d88	-0.08645159
225	0xbf0f65a7	-0.56014484
226	0xbec4f967	-0.3847153
227	0xbf1bf3c4	-0.6091883
228	0xbf0a3352	-0.5398456
229	0x3f4c8a25	0.7989829
230	0xbf06def9	-0.5268398
231	0xbbc2f8cc	-0.005950069
232	0xbe0a1e92	-0.13488224
233	0xbeefd3ff	-0.46841428
234	0x3fb61ea1	1.4228097
235	0xbf4010b0	-0.75025463
236	0xbec387ab	-0.38189444
237	0xbeee5e38	-0.46556258
238	0xbf1b6860	-0.6070614
239	0xbedd69c4	-0.43244755
240	0xbefea70f	-0.4973683
241	0xbeafdcb1	-0.34348062
242	0xbf3eba51	-0.74503046
243	0x3f7ebe4b	0.99509114
244	0xbe8cf74f	-0.2753243
245	0x3f24a9c7	0.6432156
246	0x3e61ec28	0.22062743
247	0xbecad1fc	-0.3961333
248	0xbf21f741	-0.63267905
249	0x3ec072ac	0.37587488
250	0x3f80a8a2	1.0051463
251	0xbe4064f8	-0.18788517
252	0x3dc89a9f	0.09795117
253	0xbe83738b	-0.2567409
254	0xbe7a92ea	-0.24470106
255	0x3d9229ea	0.07136901

lstm.weight_hh_l0 f4 [512, 128]
0	0x3e36dc22	0.17857412
1	0xbee41445	-0.44546714
2	0x3e9e1b51	0.30880216
3	0x3edd7187	0.43250677
4	0xbf511b1f	-0.8168201
5	0x3f5c868f	0.8614282
6	0xbf1ecb53	-0.62029
7	0xbf1ae359	-0.60503155
8	0x3ef2c2dc	0.4741429
9	0xbf4c8134	-0.7988465
10	0x3f2c9b0c	0.6742408
11	0xbf709c15	-0.9398816
12	0x3e99d7ac	0.30047357
13	0xbed8f9ef	-0.42378184
14	0x3efb0f88	0.49035287
15	0xbf5ad240	-0.85477066
16	0xbe5321c4	-0.2061835
17	0xbf55c463	-0.8350279
18	0xbe90aa31	-0.28254846
19	0x3f25573c	0.64586234
20	0xbf438675	-0.7637704
21	0x3f810fb9	1.0082923
22	0x3ecae86f	0.39630458
23	0xbed97f09	-0.42479733
24	0xbeb2921d	-0.348771
25	0xbec5372e	-0.3851866
26	0xbf4eada0	-0.8073368
27	0xbee3340f	-0.44375655
28	0xbee39ab0	-0.44453955
29	0xbf154d80	-0.5832138
30	0xbe2fdefa	-0.17174903
31	0x3ea810e6	0.32825392
32	0x3f380659	0.71884686
33	0x3eb90774	0.361385
34	0xbf27dc69	-0.65570694
35	0x3f41b0f3	0.7566063
36	0xbf0fa7c1	-0.5611535
37	0xbf4da283	-0.803261
38	0x3e4dcb2e	0.20097038
39	0x3f4731da	0.7781044
40	0x3e5e82b7	0.21729551
41	0xbf0187b2	-0.5059768
42	0xbf467f33	-0.7753784
43	0xbf3b4ddb	-0.73165673
44	0xbf645a9b	-0.8920075
45	0xbf48bbb6	-0.78411424
46	0xbf455edf	-0.77097887
47	0xbf16221b	-0.5864579
48	0xbebd575d	-0.36980715
49	0xbed285ef	-0.41117808
50	0x3f305f5e	0.6889552
51	0xbeb53898	-0.3539474
52	0xbf10e5df	-0.56600755
53	0x3eccd1ca	0.40003806
54	0xbef0649e	-0.46951765
55	0x3f3f4524	0.74714875
56	0x3e870efd	0.26378623
57	0xbd2b0ff7	-0.041763272
58	0x3f555331	0.83330065
59	0xbf46c72c	-0.7764766
60	0x3f4f4d95	0.80977756
61	0x3f348434	0.70514226
62	0x3f35af61	0.7097073
63	0xbecbf7b6	-0.39837426
64	0x3f4b3ef8	0.7939296
65	0x3f1a3fd3	0.6025364
66	0x3f444136	0.76662004
67	0xbf573912	-0.8407146
68	0x3ef3cb6b	0.47616133
69	0xbf2e0f8b	-0.67992467
70	0xbf355cbd	-0.7084463
71	0xbf44324f	-0.76639265
72	0x3f504f89	0.8137136
73	0x3f38dbb8	0.72210264
74	0xbebfd317	-0.37465736
75	0x3ea792dd	0.32729235
76	0x3e54d23d	0.20783325
77	0x3f42efa8	0.76146936
78	0x3d94ebda	0.072715476
79	0x3f453241	0.77029806
80	0x3f37a8fd	0.7174223
81	0xbf34360b	-0.70394963
82	0x3f2d6a68	0.6774049
83	0x3f50ebcf	0.81609815
84	0x3f195d20	0.5990772
85	0xbf71c048	-0.9443402
86	0xbf5088a7	-0.81458515
87	0x3cf4b4ce	0.02987137
88	0xbeb4f18d	-0.3534054
89	0xbeba5085	-0.36389557
90	0x3f007c5d	0.50189763
91	0xbf3dda5c	-0.74161315
92	0x3eba2367	0.36355135
93	0x3ed9181c	0.42401206
94	0x3f5c2369	0.8599153
95	0xbf2e16f7	-0.6800379
96	0xbf283a26	-0.6571373
97	0x3f39ca16	0.72573984
98	0x3ef658cd	0.48114625
99	0xbf506417	-0.81402725
100	0xbe7330cf	-0.23749088
101	0xbf80f478	-1.0074606
102	0x3efaccf5	0.48984495
103	0xbf5d7f47	-0.86522335
104	0x3f587d6c	0.8456638
105	0x3ef799cf	0.48359534
106	0xbc9fda12	-0.019513164
107	0x3ede75e8	0.4344933
108	0xbf1a3247	-0.6023297
109	0x3ea89be5	0.32931438
110	0x3f379f0f	0.7172708
111	0x3f39d745	0.725941
112	0x3f36121b	0.71121377
113	0xbf0778c6	-0.5291866
114	0xbf687f30	-0.9081907
115	0x3f156668	0.58359385
116	0xbf527135	-0.8220399
117	0xbf181d90	-0.5942011
118	0x3f002492	0.500558
119	0x3ecd5ef0	0.40111494
120	0x3f2bd2de	0.6711863
121	0x3f01ee38	0.5075412
122	0xbe855a14	-0.26045287
123	0xbe9bd7d4	-0.304381
124	0xbf4efa33	-0.80850524
125	0x3e194016	0.14965853
126	0xbee273b6	-0.44228905
127	0xbf39e94a	-0.72621596
128	0x3ebdcfc7	0.37072584
129	0xbf2a50b3	-0.6652939
130	0x3f3d2a8e	0.7389306
131	0xbe58011a	-0.2109417
132	0xbf670be7	-0.90252537
133	0x3f483562	0.78206456
134	0xbf296d6d	-0.66182595
135	0xbf2262db	-0.6343209
136	0xbec74675	-0.38920942
137	0xbf2323b5	-0.6372636
138	0xbdc47444	-0.095924884
139	0xbf4f3bc1	-0.8095055
140	0x3f3f4390	0.7471247
141	0x3e02e9c2	0.12784484
142	0xbdf78bf6	-0.12087242
143	0xbf3ebcc3	-0.7450678
144	0x3ee12863	0.43976125
145	0xbf1fb366	-0.62383115
146	0x3ef1f4cd	0.4725708
147	0x3f49a36a	0.78764975
148	0xbf529389	-0.8225637
149	0xbe87443f	-0.26419255
150	0x3f23fb1e	0.6405505
151	0x3e1fd34d	0.15607949
152	0x3e1ceb81	0.15324213
153	0xbf277cfa	-0.65425074
154	0xbf4ae2ab	-0.7925212
155	0x3d7e5e2b	0.062101524
156	0x3e697222	0.22797444
157	0x3e71129e	0.23542258
158	0xbf2db413	-0.67852896
159	0xbf35e01b	-0.7104508
160	0x3f51c61d	0.8194292
161	0xbed72143	-0.42017564
162	0x3e1d6364	0.15369946
163	0x3f59ac6a	0.8502871
164	0xbf116fae	-0.56811035
165	0xbf7640ef	-0.9619283
166	0xbe51d265	-0.20490415
167	0x3eff0f9f	0.49816605
168	0x3ee24333	0.44191894
169	0xbf1f23e9	-0.6216417
170	0xbf5d9cb7	-0.8656725
171	0x3dbd69dc	0.09248707
172	0xbf337ddd	-0.7011393
173	0xbf5cf1ae	-0.86306274
174	0xbf6bf7fd	-0.92175275
175	0xbf29e5cd	-0.66366273
176	0xbf162a93	-0.58658713
177	0x3ed958f5	0.4245068
178	0xbce67d96	-0.028136056
179	0xbefdad3a	-0.49546224
180	0x3e546336	0.20740971
181	0xbd34e98b	-0.044168036
182	0xbf362c65	-0.7116149
183	0xbd8ae94d	-0.0678278
184	0xbec2c646	-0.38041896
185	0x3efd7978	0.49506736
186	0x3f54adf3	0.83077925
187	0xbf598a6d	-0.84976846
188	0x3f387be6	0.72064054
189	0x3f703115	0.93824893
190	0xbe017e89	-0.12645926
191	0x3e6a0890	0.22854829
192	0x3f593540	0.8484688
193	0x3f31cd62	0.69454014
194	0x3f404ad9	0.7511421
195	0xbf15df38	-0.5854373
196	0xbe457f38	-0.19286811
197	0xbda31ead	-0.07964835
198	0x3d6dcda7	0.058057453
199	0xbf57eac2	-0.84342587
200	0x3f28c978	0.65932417
201	0x3f5bdb51	0.85881525
202	0x3e1c47f7	0.15261827
203	0xbe8bb8f7	-0.27289554
204	0xbe8f5007	-0.27990744
205	0x3f21b1b1	0.6316176
206	0x3f2f60d5	0.6850713
207	0x3f3a446c	0.72760653
208	0x3dc615a9	0.096721
209	0xbf6ce176	-0.92531526
210	0x3f7f82c2	0.99808896
211	0xbddbd496	-0.10733907
212	0xbdec5bdb	-0.115409575
213	0xbf444d88	-0.76680803
214	0xbf43c20b	-0.7646796
215	0x3ecb7d29	0.39743927
216	0x3e66f458	0.22554147
217	0x3b9425d7	0.0045211124
218	0xbea28d0b	-0.31748232
219	0xbf75442d	-0.95807153
220	0x3f400c75	0.7501901
221	0x3f1b47fe	0.60656726
222	0x3f23e228	0.6401696
223	0xbf5310e7	-0.82447666
224	0x3e11d4e9	0.14241375
225	0x3f682e12	0.906953
226	0xbe0c9eea	-0.13732496
227	0xbf5e0f63	-0.8674223
228	0xbf4da9af	-0.8033704
229	0xbf252ff2	-0.64526284
230	0x3cc95385	0.024575958
231	0xbf61de9c	-0.882303
232	0x3f6a2353	0.9146015
233	0x3d9fce89	0.07803065
234	0xbf27a328	-0.6548333
235	0x3e9087b0	0.2822852
236	0x3e5bb34e	0.21455118
237	0x3f4c7a0a	0.79873717
238	0xbd511c6e	-0.051052503
239	0xbe1925e0	-0.14955854
240	0xbdff2f02	-0.12460138
241	0x3e9692c1	0.2940884
242	0x3d82db2e	0.063894615
243	0xbe9d3c33	-0.3070999
244	0xbf65c521	-0.8975392
245	0xbf1293fd	-0.5725706
246	0x3f1a9055	0.60376483
247	0xbd018fb0	-0.03163117
248	0x3d974c30	0.073875785
249	0x3f30b4be	0.6902579
250	0xbf0822c7	-0.53178066
251	0x3e9651ce	0.29359287
252	0xbf319525	-0.693682
253	0xbecc8185	-0.39942566
254	0x3e0f711f	0.14007996
255	0xbf2e9f46	-0.6821178

lstm.bias_ih_l0 f4 [512]
0	0xc0025147	-2.0362108
1	0xbfcba58c	-1.5909896
2	0xbfd3748f	-1.6519946
3	0xbfb43e9c	-1.4081607
4	0x3fce1d6b	1.6102728
5	0xbfa94a9a	-1.3225892
6	0x3fc6d80a	1.553468
7	0xbfb5f3fd	-1.4215084
8	0x3fb72ffc	1.4311519
9	0xbfa456da	-1.2839005
10	0xbfe5aea4	-1.7943921
11	0x3f88897e	1.0666959
12	0xbfb78398	-1.4337034
13	0xbfe82f8e	-1.8139513
14	0xbfd92b2b	-1.6966299
15	0x3f80de37	1.0067815
16	0xbf7a38be	-0.9774283
17	0xbf52b1a2	-0.82302296
18	0xbf3d8db7	-0.74044365
19	0xbfdff15f	-1.7495536
20	0xbfd5b106	-1.6694648
21	0x3ff4eb8a	1.9134381
22	0xc02230f9	-2.534239
23	0xbfcf3307	-1.6187447
24	0xbfa35a28	-1.2761889
25	0xbf7813a4	-0.9690497
26	0x3fdfa2c2	1.7471545
27	0xbfdede4e	-1.7411592
28	0xbfe6f435	-1.8043276
29	0xc000a1bb	-2.0098712
30	0xbf114095	-0.5673917
31	0x3d729889	0.0592275
32	0xbf4c4d2b	-0.7980525
33	0xbfea02b2	-1.8282073
34	0xc005ab69	-2.088587
35	0xbfd590ee	-1.6684854
36	0xbf8547ef	-1.0412577
37	0xbf5268f2	-0.82191384
38	0xbea868a8	-0.32892346
39	0x3ffa1db3	1.9540313
40	0xc01469d3	-2.318959
41	0x4008b90f	2.136295
42	0xbfcbd83d	-1.5925366
43	0xbfe37446	-1.7769859
44	0x3fe5380f	1.7907733
45	0xbfe482b4	-1.7852387
46	0xbfe4d9c8	-1.7878962
47	0x3f07894a	0.5294386
48	0xbf4347bb	-0.76281327
49	0xbff64058	-1.9238386
50	0xbfd63ebd	-1.6737896
51	0xc00a359f	-2.1595228
52	0xbffdeadc	-1.9837298
53	0xbfca6e8a	-1.5814984
54	0xbf7d511a	-0.98951876
55	0xbfdbb27d	-1.7163845
56	0x3ed56576	0.4167897
57	0xc007ce28	-2.1219578
58	0xbf8c497a	-1.0959923
59	0x3ff26075	1.8935686
60	0x3fec2a34	1.8450379
61	0xbf6e93c0	-0.931942
62	0xbff068a3	-1.8781933
63	0xbfe3151c	-1.7740817
64	0xbf3dbdcc	-0.7411773
65	0xbfce48a1	-1.6115915
66	0xbff8bcb4	-1.9432588
67	0x3fe53b13	1.7908653
68	0xbfd98bd5	-1.6995798
69	0xbffa23bc	-1.9542155
70	0xbfddc2a5	-1.7325026
71	0xbf9314c3	-1.1490711
72	0x3dba9b1b	0.09111615
73	0xbfda07d6	-1.7033641
74	0xbfeb5a5d	-1.8386952
75	0xbff7e778	-1.9367514
76	0xbff30fa2	-1.8989146
77	0x3fef65d8	1.8702955
78	0xbffbfa1c	-1.9685702
79	0xbe0d8bf0	-0.13822913
80	0xbfd767f3	-1.6828598
81	0xbfc30bc0	-1.5237961
82	0xbf89fe79	-1.0780784
83	0x3ffb7069	1.964368
84	0xbfcb5c3d	-1.5887524
85	0xbf8aee66	-1.0854003
86	0x3fa36ebf	1.2768172
87	0xbffea4ca	-1.989404
88	0xbfaaa29d	-1.3330876
89	0xbfd34f7f	-1.6508635
90	0xbf645098	-0.89185476
91	0xbfcfb55a	-1.6227219
92	0x3e111f1b	0.14172022
93	0x3f4d3e3e	0.801731
94	0x3fd94837	1.6975163
95	0xbf5d4832	-0.86438286
96	0xbff44e0d	-1.9086319
97	0xbfd35e73	-1.6513199
98	0xbfe26aba	-1.768882
99	0xbfc8bf1b	-1.5683321
100	0xbfe792f0	-1.8091717
101	0xbea6b9b4	-0.32563555
102	0xc01948b7	-2.3950632
103	0x3f0921d5	0.5356725
104	0xbfdcfc84	-1.7264562
105	0xc005a4d8	-2.0881863
106	0x3f1266cc	0.57188106
107	0xc005d474	-2.091092
108	0xc0160761	-2.3442004
109	0xbfd49ee9	-1.6610996
110	0xbfd03fcc	-1.6269469
111	0xbfde2921	-1.7356302
112	0xbfce03d3	-1.6094917
113	0xbfe9e6b9	-1.8273536
114	0xbee712b4	-0.45131457
115	0xbfd4a512	-1.6612875
116	0x3fe3bfc6	1.77929
117	0xbf921e66	-1.1415527
118	0xbfc79cb2	-1.5594695
119	0xbfe9bafc	-1.8260188
120	0xbfd36456	-1.6514995
121	0xbf839765	-1.0280577
122	0xbfd4e36e	-1.6631906
123	0xbff26cf4	-1.89395
124	0x400d7570	2.2102928
125	0xc008c41b	-2.1369693
126	0xbfcb0596	-1.586108
127	0xbf5b89d4	-0.85757184
128	0xbf8a8c33	-1.0824035
129	0xbd8332d2	-0.064061776
130	0xbf011dca	-0.5043608
131	0xbf4bf79e	-0.7967471
132	0x3fa4c9b6	1.2874057
133	0x3f823760	1.0173149
134	0x3f637e51	0.8886462
135	0x3e7befb2	0.24603155
136	0x3f85b91f	1.044712
137	0x3eea3aa7	0.45747873
138	0xbf278a2f	-0.65445226
139	0x3f67cb10	0.90544224
140	0x3e853d0d	0.2602314
141	0xbeda1824	-0.42596543
142	0xbad9e3a8	-0.0016623633
143	0x3fbee308	1.4913034
144	0x3ee147be	0.44000047
145	0xbe2aad0a	-0.16667572
146	0x3f4c3c43	0.7977945
147	0xbe9bb61d	-0.3041238
148	0xbef74eda	-0.48302346
149	0x3f6a0d9d	0.9142702
150	0x3dcc7b57	0.09984463
151	0xbf3a8629	-0.7286096
152	0xbf2feaa9	-0.6871744
153	0xbf06d49c	-0.52668166
154	0x3f636042	0.8881875
155	0xbeeb2bea	-0.4593194
156	0xbf49d533	-0.7884094
157	0xbeed86d9	-0.46391943
158	0xbf5c8115	-0.86134464
159	0xbf7d2992	-0.98891556
160	0xbe397eda	-0.18114796
161	0xbf5763f6	-0.84136903
162	0xbf36e71b	-0.7144639
163	0x3f157908	0.58387804
164	0x3f0c9848	0.5491986
165	0x3f514c54	0.8175709
166	0x3f02692d	0.50941736
167	0x3f65f3b7	0.89825004
168	0xbf5204ca	-0.8203856
169	0x3f62bad9	0.88566357
170	0xbebe99b2	-0.37226635
171	0xbf3c91e0	-0.7366009
172	0x3f2dd207	0.678986
173	0xbf4a692f	-0.7906675
174	0xbf46491d	-0.7745531
175	0x3f73cf29	0.95237976
176	0xbef644b2	-0.48099285
177	0xbf38f529	-0.72249085
178	0xbdfc7d6b	-0.12328609
179	0xbf1aa97d	-0.6041487
180	0xbf1a96a4	-0.6038611
181	0xbef8ccce	-0.48593754
182	0x3f19ddfa	0.60104334
183	0xbf33774d	-0.70103914
184	0xbf66d570	-0.9016943
185	0x3f108b20	0.5646229
186	0xbf40d283	-0.75321215
187	0x3f5435d8	0.8289466
188	0x3f613a9d	0.8798006
189	0x3f742b8a	0.95378935
190	0xbedeed93	-0.4354063
191	0xbf5f5a71	-0.8724738
192	0xbde78d8b	-0.11306294
193	0x3f19b34b	0.60039204
194	0xbf233e3e	-0.6376685
195	0x3f757ad6	0.9589056
196	0xbef6b52c	-0.48185098
197	0xbf1969d4	-0.59927106
198	0xbf2bc904	-0.671036
199	0xbf0d12cf	-0.55106825
200	0x3f8f725e	1.1206777
201	0xbef8f12c	-0.486215
202	0xbf1ceb5e	-0.6129664
203	0xbf45873b	-0.7715947
204	0xbf4b0658	-0.79306555
205	0x3f5e0976	0.86733186
206	0xbf93496d	-1.1506783
207	0x3f60f129	0.8786798
208	0xbf066a34	-0.52505803
209	0xbedf9d44	-0.43674672
210	0xbdbba0f5	-0.091615595
211	0x3f479db5	0.77975017
212	0xbedd8c18	-0.43270946
213	0x3f4eff5f	0.80858415
214	0x3f454bfd	0.77069074
215	0xbf73504d	-0.95044404
216	0xbfc595f1	-1.5436383
217	0xbf5954e6	-0.8489517
218	0xbf1951d7	-0.598905
219	0xbf2d0772	-0.67589486
220	0x3f210f97	0.62914413
221	0xbf32a406	-0.6978153
222	0x3f4162a6	0.7554115
223	0x3dd4d752	0.103926316
224	0xbf1d7988	-0.61513567
225	0xbf2c0c37	-0.6720614
226	0xbf371cb6	-0.71528184
227	0xbec27df8	-0.37986732
228	0xbf7ccbee	-0.9874867
229	0xbf285cb8	-0.6576648
230	0xbf05302b	-0.52026623
231	0x3f25eab1	0.64811236
232	0xbeff2e4e	-0.49840015
233	0xbf35383d	-0.7078894
234	0x3efe31ae	0.49647278
235	0xbf1787ed	-0.5919178
236	0xbf1f79b4	-0.6229508
237	0xbf70b6b6	-0.94028795
238	0xbf0b3633	-0.54379576
239	0xbf2214dd	-0.63313085
240	0xbf0ac61f	-0.5420856
241	0xbf142ac4	-0.57877755
242	0x3f3cb8b1	0.73719317
243	0x3f4cf66c	0.8006351
244	0x3f5adae3	0.85490245
245	0x3f5f5ba8	0.8724923
246	0x3f1cbb8f	0.6122369
247	0xbf1c25da	-0.60995257
248	0xbf1c39d8	-0.6102576
249	0x3ec46679	0.3835943
250	0x3e8e1c2e	0.27755874
251	0xbf5ca84a	-0.8619429
252	0x3f44b6ea	0.76841605
253	0xbf681832	-0.9066192
254	0xbec1684c	-0.37774885
255	0xbf6c1c0b	-0.9223029

lstm.bias_hh_l0 f4 [512]
0	0xbff776b1	-1.9333097
1	0xbfc3d0d3	-1.5298103
2	0xbfca9402	-1.5826418
3	0xbfb36165	-1.4014097
4	0x3fcd1e08	1.602479
5	0xbfb66808	-1.4250498
6	0x3fb4d77a	1.4128258
7	0xbfb202fd	-1.3907162
8	0x3fb4cbdf	1.4124717
9	0xbf9feb14	-1.2493615
10	0xbfe6d37f	-1.8033293
11	0x3f913a90	1.1345997
12	0xbfb7e78e	-1.436754
13	0xbfd9ac6a	-1.7005742
14	0xbfddea48	-1.7337122
15	0x3f8359bb	1.0261759
16	0xbf738dcb	-0.95138234
17	0xbf617278	-0.8806529
18	0xbf594d25	-0.8488334
19	0xbff0e53b	-1.8819956
20	0xbfd136dd	-1.6344868
21	0x3ffe5e91	1.9872609
22	0xc0202b8e	-2.5026584
23	0xbfe0d7a4	-1.7565808
24	0xbfa6da5e	-1.303539
25	0xbf7c1ef2	-0.9848472
26	0x3fef95fd	1.8717648
27	0xbfe13ff6	-1.7597644
28	0xbff13cb0	-1.8846645
29	0xc005912d	-2.0869858
30	0xbf1e9eaf	-0.6196088
31	0x3e1cb732	0.15304258
32	0xbf3f1281	-0.7463761
33	0xbfea8a68	-1.8323488
34	0xc0051cec	-2.0798903
35	0xbfca830a	-1.582124
36	0xbf8e4c50	-1.1117039
37	0xbf45f7e0	-0.7733135
38	0xbebc50a5	-0.36780277
39	0x3ff43656	1.9079082
40	0xc0175d9b	-2.3650882
41	0x400a9e25	2.1659024
42	0xbfdc33ed	-1.7203346
43	0xbfea0495	-1.8282648
44	0x3ff2b248	1.8960657
45	0xbfcef2ea	-1.6167881
46	0xbfebbdf5	-1.8417345
47	0x3efec328	0.49758267
48	0xbf3f8a6b	-0.74820584
49	0xc000b6c7	-2.0111558
50	0xbfd503ea	-1.664182
51	0xc00ac6e0	-2.1683884
52	0xbffedad2	-1.9910529
53	0xbfd4a729	-1.6613513
54	0xbf53a8d9	-0.82679516
55	0xbfe0e5a2	-1.7570078
56	0x3e99403e	0.29931825
57	0xc0034007	-2.050783
58	0xbf8a15e3	-1.0787929
59	0x40034e90	2.05167
60	0x3fed7f2f	1.8554438
61	0xbf7d780f	-0.9901132
62	0xbfe6fc8c	-1.8045821
63	0xbfe7b221	-1.8101236
64	0xbf5c1df3	-0.859832
65	0xbfc25245	-1.5181357
66	0xbff991bc	-1.94976
67	0x3fdf156b	1.7428411
68	0xbfd21d70	-1.6415234
69	0xc001149f	-2.0168836
70	0xbfde7f4c	-1.7382598
71	0xbf8b013c	-1.0859752
72	0x3e17c6b6	0.14821896
73	0xbfdaec7d	-1.710342
74	0xbfe7ff53	-1.8124794
75	0xbff8a6aa	-1.9425862
76	0xbfff1149	-1.992715
77	0x3fe70a73	1.8050064
78	0xc001c23f	-2.0274808
79	0xbe382585	-0.17983063
80	0xbfe23b46	-1.7674339
81	0xbfc25f08	-1.5185251
82	0xbf83ceaf	-1.029745
83	0x40014e60	2.0204086
84	0xbfd9571b	-1.6979707
85	0xbf862aca	-1.0481808
86	0x3f907bbc	1.1287761
87	0xc0000715	-2.0004323
88	0xbf9e8a07	-1.2385873
89	0xbfce138d	-1.6099716
90	0xbf772d02	-0.9655305
91	0xbfd42152	-1.6572669
92	0x3e740908	0.2383157
93	0x3f2d1c4b	0.67621297
94	0x3fd0410f	1.6269854
95	0xbf5baed5	-0.8581365
96	0xbfede399	-1.8585082
97	0xbfdfd628	-1.748723
98	0xbfda2dde	-1.7045248
99	0xbfc4cbb5	-1.5374666
100	0xbfe6878c	-1.8010116
101	0xbec1ddf4	-0.3786465
102	0xc018fe8c	-2.3905363
103	0x3f17b7f5	0.5926507
104	0xbfd9fd11	-1.7030355
105	0xc0019083	-2.0244453
106	0x3f2d6124	0.6772635
107	0xbffc6a47	-1.9719933
108	0xc00ff45c	-2.2492895
109	0xbfd49cbf	-1.6610335
110	0xbfd306dc	-1.6486468
111	0xbfd9c7b1	-1.7014066
112	0xbfda40db	-1.7051042
113	0xbfdf20f3	-1.743193
114	0xbeeb87c2	-0.46002012
115	0xbfce2e8f	-1.6107959
116	0x3fe1ede9	1.765073
117	0xbf96a27a	-1.1768334
118	0xbfc46dac	-1.5345969
119	0xbfe9f5d8	-1.827815
120	0xbfd83d35	-1.6893679
121	0xbf8e7d6c	-1.1132026
122	0xbfdc05d1	-1.7189275
123	0xbfed449d	-1.8536564
124	0x4017ad07	2.3699358
125	0xc00211f8	-2.0323467
126	0xbfc34aec	-1.5257239
127	0xbf438f19	-0.76390225
128	0xbf8943a2	-1.0723765
129	0xbd926a25	-0.07149152
130	0xbf262fc3	-0.6491663
131	0xbf4be941	-0.7965279
132	0x3fa3b6b9	1.2790138
133	0x3f83d43e	1.0299146
134	0x3f6235ea	0.88363516
135	0x3e4fcab2	0.20292166
136	0x3f8e82a0	1.1133614
137	0x3f0dc4c0	0.5537834
138	0xbf22e0ad	-0.6362408
139	0x3f71c1fc	0.9443662
140	0x3ed10933	0.4082733
141	0xbef426fb	-0.4768599
142	0xbd5a91a7	-0.05336156
143	0x3fadea9d	1.3587223
144	0x3ef57452	0.47940308
145	0xbddb6163	-0.107119344
146	0x3f2e11c4	0.6799586
147	0xbe4d3a61	-0.20041801
148	0xbf0e5324	-0.5559561
149	0x3f65e34b	0.89799947
150	0x3e0c85c7	0.13722907
151	0xbf384fc6	-0.71996725
152	0xbf3cc15a	-0.7373253
153	0xbf0b0368	-0.5430207
154	0x3f62ef27	0.8864617
155	0xbeb8c80c	-0.36090124
156	0xbf5d3086	-0.86402166
157	0xbee654bc	-0.44986522
158	0xbf56d588	-0.8391957
159	0xbf849278	-1.0357199
160	0xbe7ca496	-0.2467216
161	0xbf4ffc7b	-0.8124463
162	0xbf24b156	-0.64333093
163	0x3f13fc27	0.5780663
164	0x3ee91964	0.45527184
165	0x3f657605	0.8963321
166	0x3ed7b23c	0.4212817
167	0x3f5e5073	0.86841506
168	0xbf6806cf	-0.9063539
169	0x3f7117be	0.9417685
170	0xbebb908a	-0.36633712
171	0xbf24b697	-0.6434111
172	0x3f4303a5	0.76177436
173	0xbf4fc75e	-0.81163585
174	0xbf4fa283	-0.8110735
175	0x3f61dc49	0.88226753
176	0xbf0c5c13	-0.54827994
177	0xbf2775ca	-0.65414107
178	0xbe66665a	-0.22499982
179	0xbf1c0181	-0.60939795
180	0xbf23fbcd	-0.6405609
181	0xbef9dbfb	-0.48800644
182	0x3f173664	0.5906737
183	0xbf2887bc	-0.65832114
184	0xbf742cef	-0.95381063
185	0x3ef660ba	0.48120672
186	0xbf66bfca	-0.90136397
187	0x3f53e6f3	0.82774276
188	0x3f6817cd	0.9066132
189	0x3f6d2bb1	0.9264479
190	0xbece605a	-0.40307885
191	0xbf4fe9b9	-0.8121601
192	0xbd36e9ee	-0.044656686
193	0x3f004d96	0.50118387
194	0xbf29293c	-0.66078544
195	0x3f5dbfae	0.86620605
196	0xbf197aeb	-0.5995318
197	0xbf08a2ec	-0.533736
198	0xbf1c907b	-0.6115796
199	0xbf0e5a71	-0.5560675
200	0x3f7ac64f	0.97958845
201	0xbf06ae9b	-0.52610177
202	0xbf0fc03f	-0.5615272
203	0xbf3c361b	-0.7352006
204	0xbf476e7f	-0.7790298
205	0x3f430b50	0.76189137
206	0xbf97471b	-1.1818575
207	0x3f559b1a	0.8343979
208	0xbf06628a	-0.5249411
209	0xbf02c8e6	-0.51087797
210	0xbe39b80b	-0.18136613
211	0x3f4f302b	0.80932873
212	0xbeec591c	-0.46161735
213	0x3f78577b	0.97008485
214	0x3f51bdd1	0.8193026
215	0xbf6a2af0	-0.9147177
216	0xbfc901b5	-1.5703646
217	0xbf5a22c6	-0.8520931
218	0xbf1ceac0	-0.612957
219	0xbf13190b	-0.5746009
220	0x3f3ee99c	0.7457521
221	0xbf402b92	-0.75066483
222	0x3f2de1c9	0.67922646
223	0x3dfd39b5	0.12364522
224	0xbf40f0e7	-0.7536759
225	0xbf23c272	-0.63968575
226	0xbf261be3	-0.648863
227	0xbeb7b238	-0.35878158
228	0xbf62f0a7	-0.88648456
229	0xbf34b824	-0.70593476
230	0xbef17de1	-0.4716635
231	0x3f2496d3	0.6429264
232	0xbee9347b	-0.45547852
233	0xbf300d22	-0.6877004
234	0x3ecc6755	0.39922586
235	0xbf18b8fc	-0.59657264
236	0xbf36a81a	-0.7135025
237	0xbf83ac7f	-1.0287017
238	0xbefb9614	-0.49137938
239	0xbf2d0e64	-0.67600083
240	0xbf090915	-0.53529483
241	0xbf16fc17	-0.5897841
242	0x3f5c48d0	0.86048603
243	0x3f67b999	0.90517575
244	0x3f5cca69	0.86246353
245	0x3f577461	0.84161955
246	0x3f100d9b	0.5627076
247	0xbf1cdb8a	-0.6127249
248	0xbf052465	-0.5200866
249	0x3eaca079	0.3371618
250	0x3ec61899	0.38690642
251	0xbf4d7756	-0.8026022
252	0x3f35946d	0.70929605
253	0xbf7118c1	-0.94178396
254	0xbed3866c	-0.41313493
255	0xbf43c8f3	-0.764785

lstm.weight_ih_l1 f4 [512, 128]
0	0x3dad686c	0.084671825
1	0xbf8b41e1	-1.087948
2	0x3f13740e	0.5759896
3	0xbf972097	-1.1806821
4	0xbfc4edc6	-1.5385063
5	0x3f977246	1.1831748
6	0xbfa402b2	-1.2813323
7	0xbf3cffdb	-0.73827904
8	0x3f9873d5	1.1910349
9	0xbf2e4584	-0.6807482
10	0xbf11b839	-0.56921726
11	0xbf9be6ff	-1.217987
12	0x3f3fc6fa	0.7491299
13	0x3e5d5670	0.21615005
14	0xbf09f936	-0.5389589
15	0xbfc033f1	-1.5015851
16	0x3f84445a	1.0333359
17	0xbf42a243	-0.7602884
18	0x3f88b8d8	1.068141
19	0xbf3f3ebf	-0.7470512
20	0x3cac2747	0.021014823
21	0x3fa893a8	1.3170061
22	0x3ef1a73f	0.4719791
23	0x3f59110c	0.84791636
24	0x3f778a70	0.96695614
25	0xbfb80845	-1.4377524
26	0xbf90fbc4	-1.1326833
27	0x3eaf8572	0.34281498
28	0x3e62094c	0.22073859
29	0x3f37db49	0.7181898
30	0x3f88d6f1	1.0690595
31	0x3f6cf40c	0.92559886
32	0x3f3ea61b	0.74472207
33	0xbe8f324a	-0.27968055
34	0x3f256cc5	0.64619094
35	0xbe780582	-0.24220851
36	0xbf51773f	-0.8182258
37	0xbfb21382	-1.3912203
38	0x3e31a504	0.17348105
39	0x3fa9cd49	1.3265773
40	0x3f2ca26f	0.67435354
41	0xbf83b365	-1.0289122
42	0x3e5c4efd	0.21514507
43	0x3f313ee9	0.6923662
44	0xbfa28fcd	-1.2700135
45	0x3ed861e0	0.42262173
46	0x3e5c5d4f	0.2151997
47	0xbfa748ad	-1.3069054
48	0x3ef07a7a	0.46968442
49	0x3edab84b	0.4271873
50	0xbf1f1c22	-0.621523
51	0xbde91d12	-0.11382498
52	0x3f3018fb	0.6878812
53	0xbf0000f5	-0.5000146
54	0xbf2895ea	-0.6585375
55	0xbf6bba0c	-0.9208076
56	0xbe0e4b39	-0.13895883
57	0xbec940be	-0.39307207
58	0x3f218ba7	0.6310372
59	0xbf9b26d1	-1.2121221
60	0x3fa574ac	1.292623
61	0x3fb70dd2	1.4301093
62	0xbf2fa766	-0.68614805
63	0x3f273b5e	0.6532496
64	0x3f2f0162	0.68361485
65	0x3f2f46ac	0.6846721
66	0x3f346934	0.7047303
67	0xbfa76946	-1.3079002
68	0xbf33b921	-0.7020436
69	0x3f400160	0.750021
70	0x3f11c06b	0.5693423
71	0xbf0dbbef	-0.5536489
72	0x3f5df311	0.86699015
73	0xbdf2e5e0	-0.118602514
74	0xbdea744d	-0.11447964
75	0xbede9060	-0.43469524
76	0x3c170fc5	0.009220068
77	0x3fa4e212	1.2881491
78	0xbe2cdcb7	-0.16881071
79	0x3ed4dbd2	0.4157396
80	0xbf1b36bb	-0.6063039
81	0xbd30f834	-0.043205455
82	0x3f22b9ae	0.63564575
83	0x3fb13e41	1.3847123
84	0xbf45f6f9	-0.77329975
85	0xbfb44e95	-1.4086481
86	0xbf9e04a3	-1.2345165
87	0xbef4ff55	-0.47851053
88	0x3e02f313	0.12788038
89	0xbf57d62c	-0.84311175
90	0xbe9e2d9e	-0.30894178
91	0x3e7e200e	0.24816915
92	0xbf02f5c8	-0.5115628
93	0x3ea5dff8	0.32397437
94	0x3fa7e746	1.3117454
95	0xbf707c7b	-0.9393994
96	0x3f440b38	0.7657962
97	0xbd4f95f6	-0.050680123
98	0x3ef2f52f	0.47452685
99	0x3e828ec2	0.2549954
100	0xbfc127f8	-1.5090322
101	0xbeecd837	-0.4625871
102	0x3edf0fee	0.4356684
103	0xbfaffec4	-1.3749623
104	0x3ebafe8d	0.36522332
105	0x3dd1fd5b	0.10253402
106	0x3d4f56ed	0.05062001
107	0x3ea9dd7c	0.33176792
108	0x3f2694a6	0.6507057
109	0x3f98b3a8	1.1929827
110	0xbf39113c	-0.7229192
111	0xbf1faa1c	-0.6236894
112	0xbf1472f5	-0.5798791
113	0x3e658746	0.22414884
114	0xbf6b0bac	-0.91814685
115	0xbf3fa311	-0.74858195
116	0xbfa66bba	-1.3001626
117	0xbf22fef9	-0.6367031
118	0x3ec1493c	0.37751186
119	0xbf1ca11f	-0.6118335
120	0xbf2ffe1d	-0.6874712
121	0x3f43c7db	0.7647683
122	0xbf1e99b8	-0.61953306
123	0x3eb701fb	0.35743698
124	0xbfb1c911	-1.3889486
125	0xbd392111	-0.04519755
126	0x3f191576	0.5979837
127	0xbf4b03d4	-0.79302716
128	0xbf489352	-0.7834979
129	0x3f591008	0.84790087
130	0xbe57bfd4	-0.2106927
131	0xbe315048	-0.17315781
132	0xbed9832b	-0.42482886
133	0xbf1aee2c	-0.6051967
134	0xbee60725	-0.44927326
135	0xbdf05f5b	-0.117369376
136	0x3f88366f	1.0641612
137	0xbeae33db	-0.34023938
138	0x3ea5cbc1	0.32382014
139	0xbe907ad7	-0.2821872
140	0x3e920bdd	0.28524676
141	0xbef39a18	-0.47578502
142	0x3db52908	0.08845717
143	0xbe7211a8	-0.23639548
144	0x3e0ee3a8	0.13954031
145	0xbef24a77	-0.47322437
146	0x3e439c48	0.19102585
147	0x3c0de517	0.008660576
148	0x3f753b7c	0.9579389
149	0x3f10a675	0.56503993
150	0xbf3ca0ec	-0.7368305
151	0x3e053712	0.13009289
152	0xbf30bbfb	-0.69036835
153	0x3f5668e7	0.8375382
154	0xbe6b071e	-0.22951934
155	0xbedc2758	-0.42998767
156	0xbec2b00b	-0.38024935
157	0xbd591ab9	-0.053004
158	0x3fbf0fac	1.4926658
159	0x3fbb2b45	1.462258
160	0xbf8b7d6e	-1.0897653
161	0x3e341f1b	0.17589991
162	0xbe83edcc	-0.25767362
163	0xbf468437	-0.77545494
164	0x3f02b0ba	0.51050913
165	0xbde1c968	-0.11024743
166	0x3f33a64d	0.7017563
167	0x3e365a26	0.17807826
168	0xbf11ba88	-0.5692525
169	0xbee58f1c	-0.44835746
170	0x3f7b9064	0.982672
171	0xbe4bd63c	-0.19905943
172	0xbe8d9016	-0.2764899
173	0x3f71e025	0.9448264
174	0x3f6ef3f6	0.93341005
175	0xbeba629d	-0.3640336
176	0x3fbda1f6	1.4815052
177	0xbe2caadf	-0.16862057
178	0x3e74e82d	0.23916693
179	0x3dc0637c	0.09393975
180	0xbdf04f64	-0.117338926
181	0x3edab3c0	0.42715263
182	0x3cea3488	0.028589502
183	0x3e458030	0.19287181
184	0x3f993afa	1.1971123
185	0x3efb3dde	0.49070638
186	0xbf85ca16	-1.0452297
187	0xbeb7827e	-0.35841745
188	0x3ebcce71	0.36876252
189	0xbf207dd2	-0.62691987
190	0x3d7be344	0.061496034
191	0xbe9f8a36	-0.31160134
192	0xbf76c4d5	-0.9639409
193	0x3dbd25a1	0.09235693
194	0xbf448806	-0.76770055
195	0xbe912354	-0.28347266
196	0x3e75b14c	0.23993415
197	0xbe87b75d	-0.26507083
198	0xbe9f1285	-0.31068817
199	0x3f3f3358	0.7468772
200	0x3f118fb5	0.56859905
201	0xbf643b0a	-0.89152586
202	0xbf049260	-0.5178585
203	0x3e86cac2	0.26326567
204	0x3e42d82e	0.19027779
205	0x3e746ba8	0.23869193
206	0xbf114a90	-0.567544
207	0xbf0e2cb9	-0.5553699
208	0x3e8edf20	0.27904606
209	0x3f8021ec	1.0010352
210	0xbf57b9ca	-0.84267867
211	0x3f0ae759	0.5425926
212	0x3dab59df	0.08366751
213	0x3ec9f1b8	0.3944223
214	0xbe96e466	-0.2947113
215	0xbf08df51	-0.53465754
216	0x3ed01226	0.40638846
217	0xbf4e71f2	-0.80642617
218	0xbe93b27e	-0.28847116
219	0x3f78f019	0.9724136
220	0xbedba3f1	-0.42898515
221	0xbfbda424	-1.4815717
222	0x3e979072	0.2960239
223	0x3f76aa8a	0.9635397
224	0xbe1a457a	-0.15065566
225	0xbf70138a	-0.93779814
226	0x3f0cec32	0.55047905
227	0x3f77cf61	0.9680081
228	0x3f84ee9e	1.038532
229	0x3e9bf26e	0.30458397
230	0x3f02ee6a	0.5114504
231	0xbed138ce	-0.4086365
232	0xbf4552d1	-0.7707949
233	0x3ec45ce4	0.3835212
234	0x3fb23d1e	1.3924901
235	0x3eb1794a	0.3466285
236	0xbe35e29d	-0.17762227
237	0xbf7b7d1d	-0.9823778
238	0xbd82d2d7	-0.06387871
239	0x3e4ab3ef	0.19795202
240	0x3d0f2504	0.03494741
241	0xbeb97ead	-0.36229458
242	0xbef99db3	-0.48753127
243	0x3c97f5e3	0.018549865
244	0xbebbbb0b	-0.3666614
245	0xbd9335de	-0.07188009
246	0xbe1528af	-0.14566301
247	0x3e9d8685	0.30766693
248	0x3e111f1b	0.14172022
249	0x3f32adbc	0.6979635
250	0xbd2a353e	-0.041554682
251	0xbe86829e	-0.26271528
252	0xbe730842	-0.23733619
253	0xbf036224	-0.51321626
254	0xbed8afc9	-0.42321613
255	0xbd8544c0	-0.06507254

lstm.weight_hh_l1 f4 [512, 128]
0	0x3e209d2c	0.15684956
1	0x3f6a1b2d	0.91447717
2	0xbf2b7fd8	-0.6699195
3	0x3f2cb9ee	0.67471206
4	0x3e0697af	0.131438
5	0xbf2b1ff1	-0.66845614
6	0x3f1bb137	0.60817283
7	0xbed1820d	-0.40919533
8	0xbf6072ee	-0.8767537
9	0x3dd67a24	0.10472515
10	0xbf5aa68c	-0.8541038
11	0x3ddd8eac	0.10818228
12	0x3f00995a	0.50233996
13	0x3f11748a	0.5681845
14	0xbf7933b4	-0.9734452
15	0x3dd4cb24	0.103903085
16	0x3f3697fe	0.7132567
17	0x3f4bd47b	0.79621094
18	0xbd1504cc	-0.036381528
19	0xbf168bd2	-0.588071
20	0xbe4f547c	-0.20247072
21	0x3f782773	0.96935195
22	0x3e4e5939	0.20151223
23	0x3d9c95d2	0.076457635
24	0x3e9ab29e	0.302144
25	0xbe12c37c	-0.14332384
26	0xbee7e077	-0.4528844
27	0xbe8fa610	-0.28056383
28	0xbed78a32	-0.42097622
29	0x3f12b5c1	0.57308584
30	0x3ec826e3	0.39092168
31	0xbf7003c8	-0.9375577
32	0xbf2bd93f	-0.67128366
33	0x3ecd7842	0.40130812
34	0xbe3b6feb	-0.18304412
35	0x3f887a3f	1.0662307
36	0x3f136357	0.57573456
37	0xbeec1c1d	-0.461152
38	0xbed62e6c	-0.41832292
39	0x3e0b1a8d	0.13584347
40	0x3f001537	0.5003237
41	0x3e5f15e4	0.21785694
42	0xbd1bd494	-0.038044527
43	0x3f862039	1.0478584
44	0xbe940f26	-0.28917807
45	0x3f660d03	0.89863604
46	0xbea8e818	-0.32989573
47	0xbddf1d2e	-0.108942375
48	0x3fa4cbb5	1.2874666
49	0x3f563cfb	0.836868
50	0xbe4729a0	-0.19449472
51	0xbf1e84b0	-0.61921215
52	0x3ea08f9b	0.31359562
53	0xbf809c01	-1.0047609
54	0x3ee24998	0.44196773
55	0x3d9e53f7	0.07730859
56	0x3e125b82	0.1429272
57	0x3dd09eaa	0.10186513
58	0x3e4fde58	0.20299661
59	0xbe77d287	-0.24201404
60	0xbf4f1e67	-0.80905765
61	0xbf8d3af8	-1.1033621
62	0xbf008c0d	-0.502137
63	0x3df1755f	0.11789965
64	0xbecbdfa8	-0.39819074
65	0x3f1340a2	0.57520497
66	0xbf52b9a1	-0.823145
67	0xbda693a3	-0.08133628
68	0x3faa956e	1.3326852
69	0xbd7db3b7	-0.061938968
70	0xbf3d1571	-0.7386084
71	0x3f55dbc3	0.83538455
72	0xbea55d33	-0.32297668
73	0x3dad0f86	0.084502265
74	0xbf5ffb6c	-0.87493014
75	0xbf864ceb	-1.0492224
76	0xbf5790a8	-0.842051
77	0xbf384c2e	-0.7199124
78	0x3e3930bd	0.18084998
79	0xbf09779f	-0.5369815
80	0x3ea282a8	0.31740308
81	0x3eb0658c	0.34452474
82	0xbe3ca65f	-0.1842284
83	0x3ef66e0f	0.48130843
84	0xbf5e9a26	-0.8695396
85	0xbf4e7ef1	-0.8066245
86	0x3ebb848b	0.3662456
87	0xbeeb5a35	-0.4596726
88	0xbeb43465	-0.35196224
89	0x3e159dfa	0.14611045
90	0x3f838815	1.0275904
91	0x3f2f72df	0.68534654
92	0x3edda3c2	0.43289
93	0xbe813829	-0.2523816
94	0xbd4f240e	-0.050571494
95	0x3e68d291	0.22736575
96	0x3ea1c771	0.31597474
97	0xbf1f0b88	-0.6212697
98	0xbf213816	-0.62976205
99	0xbf3446c1	-0.7042046
100	0x3f2e5678	0.6810069
101	0xbe611cdb	-0.21983664
102	0x3f222ce0	0.63349724
103	0x3f393d63	0.72359294
104	0x3f13c51e	0.5772265
105	0xbf79da1c	-0.97598433
106	0xbf42011a	-0.7578293
107	0x3e8cd214	0.27504027
108	0x3dbbe76a	0.09174998
109	0xbe65c242	-0.22437385
110	0x3ecd4822	0.40094095
111	0x3a7f9119	0.0009749099
112	0x3e528272	0.20557573
113	0xbe20744b	-0.15669362
114	0xbf9ee24b	-1.2412809
115	0x3ee45a82	0.44600302
116	0x3f869520	1.0514259
117	0xbf3008f2	-0.6876365
118	0xbed80004	-0.42187512
119	0xbf71a08a	-0.9438559
120	0x3f1d41c6	0.6142849
121	0x3f0d4865	0.5518859
122	0x3f07cfd4	0.53051496
123	0xbf1634aa	-0.5867411
124	0xbe144866	-0.14480743
125	0xbf6118bc	-0.87928367
126	0x3f23a372	0.6392127
127	0x3efe26cd	0.49638978
128	0xbf3dce5b	-0.74143
129	0x3faaf0bc	1.3354716
130	0xbf8b98c5	-1.0905997
131	0x3f02263e	0.508396
132	0x3ec6a826	0.38800162
133	0xbf18fc17	-0.5975966
134	0x3f0cf9a8	0.55068445
135	0xbf189345	-0.59599715
136	0xbfd11b97	-1.6336545
137	0xbedc1de8	-0.42991567
138	0xbea64c7d	-0.3248023
139	0x3eb5ec50	0.35531855
140	0x3ef9bdc4	0.48777592
141	0x3fb7d49b	1.4361757
142	0xbfba3d35	-1.4549929
143	0xbf250295	-0.64457065
144	0x3f5a6c62	0.8532163
145	0x3f20dc2d	0.6283596
146	0xbe9e3e3c	-0.30906856
147	0xbf9a7d62	-1.2069514
148	0xbdc38f89	-0.095488615
149	0x3f8e41de	1.1113851
150	0xbec98ad8	-0.39363742
151	0xbec9b9cb	-0.3939956
152	0xbf0ef715	-0.5584577
153	0x3f36e92a	0.7144953
154	0xbf22cddd	-0.6359537
155	0x3ecacea1	0.3961077
156	0xbe633e09	-0.22191633
157	0x3ec36a70	0.38167143
158	0xbf5bbe21	-0.8583699
159	0xbf2f1dda	-0.68404925
160	0xbf7f3838	-0.9969516
161	0x3f0e26cd	0.55527955
162	0x3f2bed69	0.67159134
163	0x3fb2089e	1.390888
164	0x3f188bca	0.595883
165	0x3f752aa0	0.95768166
166	0xbf6dfa94	-0.92960477
167	0xbe956c6d	-0.29184285
168	0x3f9efef4	1.2421556
169	0xbeb78275	-0.35841718
170	0x3f90893a	1.1291878
171	0x3f917979	1.1365196
172	0x3f101a13	0.56289786
173	0x3f09d908	0.5384679
174	0x3f2b3b1c	0.6688707
175	0xbf886be5	-1.0657927
176	0x3f51591a	0.81776583
177	0x3f3f18d8	0.74647284
178	0xbf37730b	-0.71659917
179	0xbede58ec	-0.43427217
180	0xbf00289c	-0.50061965
181	0xbfbb7d27	-1.4647568
182	0x3faadcaa	1.3348591
183	0xbe2ec60a	-0.17067733
184	0xbe1039ff	-0.14084624
185	0x3e86873d	0.26275054
186	0xbe155c5f	-0.14586018
187	0x3ef6df16	0.48217076
188	0xbf25919d	-0.64675313
189	0xbfb2929f	-1.3950995
190	0x3ceae688	0.028674379
191	0x3e132c31	0.14372326
192	0x3fa6a1f1	1.301817
193	0x3f90245f	1.12611
194	0xbe9bd678	-0.30437064
195	0xbf5804b1	-0.8438216
196	0x3fb6b85c	1.4275012
197	0x3ec03d03	0.37546548
198	0xbed810c1	-0.42200282
199	0x3fd007e6	1.625241
200	0x3f82393b	1.0173715
201	0x3edb541d	0.4283761
202	0xbeeece8b	-0.46641955
203	0xbf6f3a10	-0.9344797
204	0xbf790e58	-0.9728751
205	0x3ea2f6d1	0.3182893
206	0xbf27d754	-0.6556294
207	0xbf13c68a	-0.5772482
208	0x3eafcb3a	0.34334737
209	0xbedc6a3f	-0.4304981
210	0x3eec1e45	0.46116844
211	0x3f6b245b	0.9185235
212	0xbf46ed8e	-0.7770623
213	0xbf1cdc9e	-0.61274135
214	0xbeee3050	-0.46521235
215	0x3f39ee46	0.726292
216	0x3ea6434a	0.32473212
217	0xbf5e6517	-0.86873
218	0x3fce738d	1.6129013
219	0x3f210b47	0.6290783
220	0x3f95f472	1.1715224
221	0x3f80b833	1.0056213
222	0xbf7a54fa	-0.97785914
223	0xbeac4d6c	-0.33652818
224	0x3f31564c	0.69272304
225	0xbfa48830	-1.2854061
226	0xbf9419d0	-1.1570377
227	0x3eedbf2e	0.4643492
228	0x3f0455bb	0.51693314
229	0x3eeb7cda	0.45993692
230	0xbf295ad7	-0.66154236
231	0x3f8b7d17	1.0897549
232	0x3ef9d688	0.48796487
233	0xbfbed5ef	-1.4909037
234	0xbf31934f	-0.693654
235	0x3c1b3d95	0.0094751315
236	0xbeb45e7d	-0.3522834
237	0x3f8f7dde	1.1210287
238	0x3f30ee2c	0.6911342
239	0x3ed9e9c1	0.42561153
240	0x3e8b3db6	0.2719552
241	0x3f4cdfb9	0.80028874
242	0xbfa0ad56	-1.2552898
243	0x3f5873ec	0.8455188
244	0x3fb46a82	1.4095004
245	0xbe4c58e6	-0.19955787
246	0x3f0b5ab3	0.5443527
247	0xbf8ebb3a	-1.1150887
248	0x3efdea8e	0.49593014
249	0x3f206999	0.6266113
250	0x3f2c0d79	0.6720806
251	0xbf6c90d1	-0.9240847
252	0x3eeb15f1	0.45915177
253	0xbf741eac	-0.953593
254	0x3f8469e7	1.0344819
255	0x3f363c3c	0.7118566

lstm.bias_ih_l1 f4 [512]
0	0xbf9903f8	-1.1954336
1	0xbd2e1aca	-0.042506017
2	0x3f030d0f	0.511918
3	0xbea5eb08	-0.32405877
4	0xbf10df46	-0.5659069
5	0xbf1ba4c4	-0.6079829
6	0x3f814b8e	1.0101182
7	0xbf5b203f	-0.8559608
8	0x3f6f8c55	0.93573505
9	0xbf73c11e	-0.9521655
10	0xbf32fffa	-0.6992184
11	0xbf19be94	-0.60056424
12	0x3f05dfec	0.522948
13	0x3f590a43	0.84781283
14	0x3f396810	0.7242441
15	0x3f0ce573	0.5503761
16	0x3ec246a5	0.37944523
17	0xbf7a34a7	-0.9773659
18	0x3f76ede3	0.96456736
19	0x3ee85374	0.4537617
20	0x3f84ea69	1.0384036
21	0x3efdbf6d	0.4956011
22	0xbf909f66	-1.1298645
23	0xbf4daa53	-0.8033802
24	0xbf8b7eef	-1.0898112
25	0x3f750441	0.95709616
26	0xbf031a10	-0.51211643
27	0x3f5ce803	0.8629152
28	0x3f7184ef	0.94343466
29	0xbf08f7bb	-0.53503007
30	0x3f64adc4	0.89327645
31	0xbe8bd9fd	-0.2731475
32	0x3f2c2695	0.6724637
33	0xbf0acb02	-0.54216015
34	0xbf4ca868	-0.7994447
35	0x3f61cafc	0.88200355
36	0xbf6f84ac	-0.93561816
37	0x3f2ba31f	0.6704578
38	0xbf247fa6	-0.64257276
39	0x3f946c4d	1.1595551
40	0xbcdb5fae	-0.026779022
41	0xbebe8f98	-0.37218928
42	0x3f3efe5a	0.7460686
43	0x3f6396cf	0.8890199
44	0xbf1a8a96	-0.60367715
45	0xbee5e7c6	-0.44903392
46	0x3f192171	0.5981665
47	0xbf89aad9	-1.0755264
48	0x3d98ee2d	0.074673034
49	0x3f32ac1e	0.6979388
50	0x3f4ba977	0.7955546
51	0xbfc13bfb	-1.509643
52	0xbf6acd27	-0.9171929
53	0x3f4103a5	0.75396186
54	0xbefee314	-0.49782622
55	0xbf2c70d8	-0.67359686
56	0x3f9f57dd	1.2448689
57	0xbf148458	-0.5801444
58	0xbf1003c7	-0.56255764
59	0x3f30cbb2	0.69060814
60	0xbdc1a771	-0.09455765
61	0x3f2e8fce	0.6818818
62	0xbf52fd75	-0.82417995
63	0xbf5db22f	-0.8660001
64	0xbf520f3e	-0.8205451
65	0x3f70e53c	0.94099784
66	0xbf485550	-0.78255177
67	0xbf82fd06	-1.0233467
68	0x3e16a012	0.147095
69	0xbf5f6b6c	-0.8727329
70	0xbf21fe26	-0.63278425
71	0x3f69670d	0.9117287
72	0x3f1321b8	0.57473326
73	0xbf55a817	-0.8345961
74	0xbf2123c2	-0.6294519
75	0xbf103c1a	-0.5634171
76	0x3f2d0971	0.6759253
77	0x3f742828	0.95373774
78	0x3e870bd0	0.263762
79	0x3f5d3519	0.86409146
80	0xbf921886	-1.1413734
81	0x3f900fc1	1.1254808
82	0xbfb2d5c2	-1.3971484
83	0x3f14ec5a	0.58173144
84	0xbf32528a	-0.69657195
85	0xbefb3482	-0.49063498
86	0x3f52d875	0.8236154
87	0x3f615672	0.8802253
88	0xbddf06ee	-0.108899936
89	0x3ef5d4eb	0.48014006
90	0x3f8b5f76	1.0888507
91	0xbe9303ae	-0.28713745
92	0xbe9f0365	-0.31057277
93	0x3f512700	0.81700134
94	0x3fbee586	1.4913795
95	0xbf967ef6	-1.1757495
96	0xbe5cd0a0	-0.21563959
97	0x3f479ccc	0.7797363
98	0x3f2122ed	0.6294392
99	0x3f83ba2d	1.0291191
100	0xbf33f048	-0.70288515
101	0x3f2f82b3	0.68558806
102	0xbe0a26c0	-0.13491344
103	0x3e6bc073	0.23022632
104	0xbf622e0a	-0.883515
105	0xbe9eb228	-0.30995297
106	0xbf3ab7e2	-0.7293683
107	0xbf26167c	-0.6487806
108	0xbf37b5d3	-0.71761817
109	0x3f4184da	0.7559334
110	0xbea52b06	-0.32259387
111	0x3f07f9f0	0.5311575
112	0xbf274149	-0.6533399
113	0xbe29c523	-0.16579108
114	0x3eca7d2a	0.39548618
115	0xbd5a0767	-0.053229716
116	0x3f572b9b	0.8405091
117	0x3f5370c4	0.8259394
118	0x3f04b495	0.51838046
119	0x3f0635b1	0.52425677
120	0xbfbb25d7	-1.4620923
121	0xbf5536fc	-0.83287024
122	0xbe88b43c	-0.26700008
123	0x3f5dbf79	0.8662029
124	0xbf59a709	-0.850205
125	0x3f97a7ad	1.1848046
126	0x3dc26366	0.09491615
127	0xbeb22e28	-0.3480084
128	0x3f6fc8ef	0.93665975
129	0x3fb201e0	1.3906822
130	0x3fac893e	1.3479383
131	0x3f490cad	0.78534967
132	0x3f32d475	0.69855434
133	0xbefc9903	-0.4933549
134	0x3f85ccc5	1.0453116
135	0xbf4f5c10	-0.8099985
136	0xbf1066c4	-0.5640681
137	0xbdea5cc4	-0.11443475
138	0xbf800249	-1.0000697
139	0x3f4f2dd1	0.80929285
140	0x3f31d962	0.69472325
141	0xbf0020e2	-0.50050175
142	0xbf42d3e6	-0.7610458
143	0x3f89a089	1.0752116
144	0x3e4f9cd0	0.20274663
145	0xbe3974c0	-0.18110943
146	0x3f4fe1ff	0.8120422
147	0x3f121aa6	0.5707191
148	0x3f58d6c3	0.847027
149	0xbf7642c7	-0.96195644
150	0x3ec7b3ca	0.39004356
151	0xbf925c4a	-1.1434414
152	0xbe678ac0	-0.22611523
153	0x3f088807	0.5333256
154	0xbf509957	-0.8148398
155	0x3f17f8f1	0.5936423
156	0x3f7dfba0	0.99212074
157	0xbf0ee7b5	-0.55822307
158	0x3f655da7	0.8959603
159	0xbe2f34ee	-0.17110035
160	0x3f1f6daa	0.6227671
161	0xbf7ab8a3	-0.97937983
162	0xbe38d575	-0.18050177
163	0xbe902047	-0.28149626
164	0xbef41687	-0.47673437
165	0x3eb1db15	0.3473746
166	0xbf14804e	-0.5800828
167	0x3f6c4867	0.9229798
168	0xbe4a1b84	-0.19737059
169	0xbe3ae2cc	-0.18250579
170	0x3e97a16d	0.29615346
171	0x3f4b2638	0.7935519
172	0xbcef2a66	-0.029195022
173	0x3f4daf82	0.8034593
174	0xbf5b72d8	-0.8572211
175	0x3d4a8cb6	0.0494506
176	0x3f2a83e4	0.666075
177	0xbf56902c	-0.8381374
178	0xbf72bf53	-0.9482319
179	0xbf53eba1	-0.82781416
180	0xbf6fdfa3	-0.9370062
181	0xbcefe340	-0.029283166
182	0x3f47f388	0.78105974
183	0xbf65d9dd	-0.8978556
184	0x3f48a318	0.7837386
185	0x3f26f6d7	0.652204
186	0x3ed90bd8	0.4239185
187	0x3ed03fdc	0.4067372
188	0xbf588f02	-0.8459321
189	0xbf3abb9b	-0.72942513
190	0x3f3ecb88	0.74529314
191	0xbf25ea62	-0.64810765
192	0x3ce64589	0.028109329
193	0x3f0b57e2	0.54430974
194	0x3e5f9516	0.21834216
195	0xbee9ac4f	-0.45639274
196	0x3b4ae5ae	0.0030959654
197	0x3f2ecc51	0.6828051
198	0xbf8294a2	-1.0201609
199	0xbec0c385	-0.3764917
200	0x3ea5fb69	0.32418373
201	0xbf58e7b2	-0.8472854
202	0xbf4c996c	-0.79921603
203	0x3ef0df1e	0.47045225
204	0x3e6e1270	0.23249221
205	0x3deac2d8	0.11462945
206	0x3f734e81	0.9504166
207	0x3f4cb840	0.79968643
208	0x3ea01aa4	0.31270325
209	0x3e7dc9df	0.24784039
210	0x3f02fa97	0.5116362
211	0xbf59b677	-0.85044044
212	0x3f8214de	1.0162618
213	0xbe737151	-0.23773696
214	0x3f40997d	0.75234205
215	0xbf627919	-0.8846603
216	0xbf62f3ad	-0.8865307
217	0x3ecf4f23	0.40490064
218	0xbdfe158d	-0.12406454
219	0xbec4e0aa	-0.38452655
220	0xbf6fc967	-0.9366669
221	0x3e9e6db3	0.3094307
222	0x3f933f71	1.1503736
223	0xbf529dbb	-0.8227193
224	0xbe7c8b56	-0.24662527
225	0x3ecb8d05	0.39756027
226	0x3f06b1c4	0.52615
227	0x3f13e1f4	0.5776665
228	0xbf3deead	-0.74192315
229	0x3f3e241b	0.7427384
230	0x3f51c394	0.81939054
231	0xbf2abeca	-0.6669737
232	0xbe495b64	-0.19663769
233	0xbeb013cf	-0.34390113
234	0x3e515758	0.20443475
235	0xbf646ea5	-0.8923133
236	0xbf639d00	-0.8891144
237	0x3d7ed651	0.062216107
238	0xbe942619	-0.28935316
239	0x3f732057	0.9497122
240	0xbf7e268a	-0.99277556
241	0xbf4cba04	-0.7997134
242	0xbf7ff3b1	-0.9998122
243	0xbf54d23c	-0.8313329
244	0x3e067e1a	0.13134041
245	0x3f54340e	0.8289193
246	0xbf884e7d	-1.0648953
247	0x3ed6e8fa	0.41974622
248	0x3ec32b6b	0.38119063
249	0xbe4003e2	-0.18751481
250	0x3f10ad8f	0.5651483
251	0x3f323f52	0.6962787
252	0xbe01bafe	-0.12668988
253	0x3f4d6ade	0.8024119
254	0xbf39e249	-0.7261091
255	0xbe42889a	-0.18997422
